lab6/dqn.pth (torch_old, 501612 bytes, 6 tensors)

net.0.weight f4 [400, 8]
-0.7839461 -0.09742136 -0.08498375 -0.14823012 0.6343551 -0.23399413 0.047466025 0.25829056
-0.95042264 -0.25804603 -0.20125064 -0.18748268 0.1444225 -0.048955474 -0.02980352 -0.052710686
-0.2540505 0.12462918 0.19883026 0.03917767 0.55558944 0.084004864 0.14116208 0.060287774
-0.7301294 -0.108733796 -0.50008446 0.26666412 -0.3581881 -0.09712805 -0.16364197 0.1667954
-0.059445456 0.3386605 -0.28397042 0.07904642 0.0040216437 -0.3421657 -0.10063874 0.063945286
0.12058015 -0.3818274 -0.116964996 -0.061108146 0.743711 0.04571657 -0.09870813 0.058360636
-0.040301286 -0.46222508 -0.08724295 -0.7905547 0.041167844 -0.11890121 0.07567477 0.044538997
-0.13319953 -1.2902843 -0.3053495 -0.71781296 -0.14238498 -0.08507775 -0.12090753 -0.33427462
-0.6536946 -0.35192573 -0.46449402 -0.5142518 0.3119307 -0.023757307 -0.014636095 -0.107471086
-0.015154605 -1.5088869 -0.046766896 -0.6667734 0.2579211 0.23107655 0.20351976 0.055257365
0.1275053 -0.6778615 -0.037278354 -0.5872993 -0.23460253 0.081906706 -0.61181873 -0.10726194
-0.21940282 -0.030229753 -0.039834537 -0.08167272 -1.0095441 0.0018332909 0.38442177 -0.19588561
-0.07256235 0.11730192 0.23446445 0.0036425004 0.14873545 -0.64617974 -0.25725585 0.11371091
-0.29732656 -1.2825192 -0.1895171 -0.01706468 -0.36028928 -0.062445145 -0.076256655 0.34998837
-0.31560412 -0.22249296 0.023089249 -0.25337073 -0.19061495 -0.3980055 -0.2737242 -0.09672664
0.06449588 0.025113428 0.12800679 -0.08643876 0.92010015 -0.24252206 0.26541755 0.2581872
0.80796844 -0.07961697 0.4239974 0.031470038 -0.20585997 0.1870897 -0.08684825 -0.012907989
0.0128503 0.001239971 -0.007889387 0.0011887643 1.0378611 -0.013439179 0.0056489273 -0.5253422
0.15304518 -0.88649374 0.08476987 -0.34816587 0.23588859 -0.25908375 -0.029051155 0.10875972
-0.6583825 -0.028582213 0.67743886 0.4851309 0.38144317 0.15598552 0.0640449 -0.10509574
-0.15507206 0.23582771 0.11454529 0.15946177 -0.4312274 0.5353818 0.19966425 -0.11659915
0.07200367 0.2666577 -0.4074889 -0.32161468 -0.4560088 0.35424346 -0.090907976 -0.0050940583
-0.15932603 -0.3499627 0.3227206 -0.8329677 0.23780473 -0.121253945 -0.11143943 0.03191554
0.23956466 -0.048586205 0.18101509 -0.18900809 0.31289768 0.49633142 0.1211738 -0.5405971
-0.94546914 -0.56615454 -0.1691376 -0.39878798 -0.1544773 -0.21427096 0.038418766 -0.013160515
-0.0935436 -0.5025104 0.0854884 0.79987395 0.11268367 0.081999086 0.17685065 -0.12933964
-0.37104517 -0.32798395 0.6189778 0.20452942 -0.39006853 0.38666147 -0.039622337 0.086099945
0.17835735 -0.4976017 0.46926406 -0.23968089 0.56316113 -0.1970632 0.04475006 -0.12553014
-0.82943344 -0.400646 0.175095 -0.23355977 -0.17486379 -0.3795288 0.088753335 0.02570616
0.18120615 -0.27496475 0.45188728 0.19409628 -0.43889964 -0.17965071 -0.57098037 -0.022494333
-0.19797672 0.026436077 -0.6052935 -0.3124627 0.15657093 -0.2555549 0.015657924 -0.13024214
-0.47256112 0.11942181 0.6171462 -0.5205265 0.10771352 -0.02123984 0.29849377 0.15753254
00000000: b1b0 48bf da84 c7bd f60b aebd a3c9 17be
00000010: 1965 223f 289c 6fbe bc6b 423d a93e 843e
00000020: e64e 73bf 9c1e 84be a614 4ebe 76fb 3fbe
00000030: 7ee3 133e 8985 48bd 8326 f4bc 29e7 57bd
00000040: e812 82be 953d ff3d 299a 4b3e c478 203d
00000050: 1c3b 0e3f be0a ac3d cb8c 103e 50f0 763d
00000060: c3e9 3abf d3af debd 8905 00bf 3388 883e
00000070: 6e64 b7be 12eb c6bd c391 27be 6acc 2a3e
00000080: 147d 73bd e964 ad3e 9264 91be 17e3 a13d
00000090: fec7 833b 5830 afbe af1b cebd bff5 823d
000000a0: baf2 f63d e27e c3be 588b efbd 894c 7abd
000000b0: d863 3e3f 4c41 3b3d 7d27 cabd 900b 6f3d
000000c0: f612 25bd c4a8 ecbe 6fac b2bd cb61 4abf
000000d0: 9d9f 283d 7a82 f3bd 60fb 9a3d 866e 363d
000000e0: 7565 08be 0928 a5bf c556 9cbe 97c2 37bf
000000f0: 5ecd 11be 3e3d aebd 5e9e f7bd 0b26 abbe
00000100: 8858 27bf 9c2f b4be 29d2 edbe 02a6 03bf
00000110: 61b5 9f3e af9e c2bc 3bcc 6fbc cd19 dcbd
00000120: 054b 78bc 3523 c1bf a58e 3fbd a9b1 2abf
00000130: 3c0e 843e 559f 6c3e 7c67 503e 8c55 623d
00000140: c090 023e 5588 2dbf 30b1 18bd 3f59 16bf
00000150: a53b 70be b4be a73d 27a0 1cbf 26ac dbbd
00000160: 22ab 60be 63a4 f7bc 8a29 23bd 0744 a7bd
00000170: be38 81bf 094b f03a eed2 c43e 3d96 48be
00000180: 929b 94bd fd3b f03d 7317 703e 04b7 6e3b
00000190: 1b4e 183e 096c 25bf 0ab7 83be 44e1 e83d
000001a0: 303b 98be 9729 a4bf c510 42be 3acb 8bbc
000001b0: d677 b8be 7bc6 7fbd 732c 9cbd ad31 b33e
000001c0: dd96 a1be 32d5 63be aa25 bd3c cfb9 81be
000001d0: 9130 43be 60c7 cbbe 9425 8cbe 9e18 c6bd
000001e0: 6a16 843d adba cd3c 3614 033e ce06 b1bd
000001f0: af8b 6b3f b457 78be cfe4 873e 1d31 843e
00000200: 05d7 4e3f 390e a3bd 3016 d93e bae6 003d
00000210: f5cc 52be 7194 3f3e 7fdd b1bd 087c 53bc
00000220: 118a 523c 8686 a23a 7d42 01bc 50d0 9b3a
00000230: a2d8 843f 0130 5cbc a31a b93b d47c 06bf
00000240: e0b7 1c3e 41f1 62bf d39b ad3d cc42 b2be
00000250: c78c 713e a0a6 84be b0fc edbc 6bbd de3d
00000260: c18b 28bf 3f25 eabc a26c 2d3f 1463 f83e
00000270: 854c c33e abba 1f3e f929 833d 6f3c d7bd
00000280: 36cb 1ebe d27c 713e b996 ea3d f249 233e
00000290: d6c9 dcbe c80e 093f c974 4c3e 89cb eebd
000002a0: a976 933d 5c87 883e 63a2 d0be aeaa a4be
000002b0: fc79 e9be 665f b53e f62d babd 0fec a6bb
000002c0: 5d26 23be 502e b3be a23b a53e 5f3d 55bf
000002d0: 1583 733e fd53 f8bd 5b3a e4bd dfb9 023d
000002e0: 7050 753e 5402 47bd 055c 393e 568b 41be
000002f0: 2034 a03e 271f fe3e f829 f83d 9264 0abf
00000300: 440a 72bf 81ef 10bf 6832 2dbe f02d ccbe
00000310: 4c2f 1ebe d969 5bbe ff5c 1d3d 339f 57bc
00000320: c993 bfbd 86a4 00bf 8b14 af3d 8ac4 4c3f
00000330: b2c6 e63d 23ef a73d 5618 353e 9c71 04be
00000340: a2f9 bdbe 83ed a7be 5475 1e3f 2970 513e
00000350: 10b7 c7be 7ef8 c53e 084b 22bd 2b55 b03d
00000360: 4fa3 363e a6c5 febe 6143 f03e e86e 75be
00000370: 542b 103f efca 49be d74b 373d f98a 00be
00000380: c055 54bf 7921 cdbe 1b4c 333e 4b2a 6fbe
00000390: 7e0f 33be 9951 c2be 4fc4 b53d ba95 d23c
000003a0: 1b8e 393e 2ec8 8cbe c55d e73e 2dc1 463e
000003b0: 74b7 e0be 5bf6 37be c52b 12bf 0946 b8bc
000003c0: 69ba 4abe 7990 d83c 84f4 1abf 1cfb 9fbe
000003d0: 2154 203e 18d8 82be 0c45 803c 325e 05be
000003e0: 88f3 f1be 6c93 f43d 4bfd 1d3f 3a41 05bf
000003f0: e898 dc3d 2cff adbc 2dd4 983e 3650 213e

net.0.bias f4 [400]
-0.37958983 -0.044399183 -0.34395677 0.02680122 -0.48754647 0.06532443 0.022600038 0.11800413
0.022474587 -0.38377804 0.3195982 -0.035748098 -0.055740733 -0.14917839 0.17836575 -0.051325105
0.12718187 -0.0009698137 0.38123536 -0.32305682 -0.3397538 0.2472527 0.15787756 -0.31668207
-0.071573414 0.32803172 -0.038466047 -0.252308 -0.21114038 0.17221881 -0.21535528 -0.21390398
0.09868158 -0.035050176 0.16302851 0.028230224 0.014444867 0.19684573 0.16392633 -0.3474135
-0.57247305 0.2550356 0.13920236 -0.0016180908 -0.22427031 0.25702402 -0.22058725 -0.33977026
-0.19923756 0.26718968 0.44612944 -0.21711197 0.16071045 0.066415094 -0.25852677 -0.3734108
-0.6196011 -0.22530974 -0.20691936 -0.51261246 0.1348316 -0.14407948 -0.0450087 -0.15489224
-0.11838871 0.23535588 -0.1601727 -0.22253557 -0.5873741 -0.46592855 0.20123261 0.002213431
0.31384718 -0.3756905 -0.16585816 0.2987113 -0.2804058 -0.28903985 -0.46882474 0.3263269
-0.3656429 0.32939243 -0.17113338 0.101826034 0.14858882 0.014778867 -0.42470905 -0.088098526
-0.43024704 -0.039844077 0.24335657 -1.8987854e-05 -0.39776292 -0.46563047 0.2351099 -0.13214137
0.13725746 0.2108553 0.00012134052 0.36917284 -0.20521373 0.29335707 -0.3159769 0.33224088
0.038622133 -0.18376668 -0.2603585 0.08547002 0.25491095 0.110676676 -0.050040133 -0.12332673
0.10072159 0.66982275 -0.46046817 -0.03505513 -0.24190094 -0.40044573 -0.070426404 0.14781335
-0.1314166 -0.028425943 0.13435352 0.23569906 -0.24675785 0.16591562 -0.08804289 0.00027753116
0.09919698 0.05453419 -0.312466 -0.021968277 0.2462617 -0.28736538 -0.1705397 0.21557795
-0.17261282 0.25008112 -0.57132417 0.26682192 -0.2067255 -0.28650865 -0.27062306 0.031100651
0.0002903056 -0.012976224 0.23066618 -0.24941266 -0.28511116 0.053127266 -0.27168363 0.1430074
-0.5097857 -0.19364877 0.4538856 -0.16278076 -0.44305027 -0.5354983 -0.19281353 -0.40203738
-0.25877047 -0.21508253 0.11939476 -0.03921512 0.003849958 -0.31242928 -0.3133835 0.1951989
-0.028900558 -0.2982393 -0.016567605 -0.31230703 -0.014374408 0.029598786 -0.093687765 0.07359992
-0.1999908 -0.12414842 -0.1749021 -0.071063064 -0.18398158 -0.053163063 0.08419686 -0.22725959
-0.24817736 -0.119783975 -0.7138716 0.18973927 -0.30011824 -0.4911785 -0.30632976 0.077656694
0.15449771 0.5942258 -0.046276394 -0.21269242 -0.040512495 -0.22427973 -0.32902285 0.47392467
0.089247726 0.08833397 -0.34000203 -0.15295812 -0.062225614 -0.3858981 0.30568224 0.34729135
0.12316577 0.24220611 0.0740091 0.06864257 -0.26981667 -0.06967603 -0.048413254 -0.31760463
-0.03558728 -0.14599393 0.32786965 -0.36928195 0.0793298 -0.42620435 0.07748351 -0.41817707
-0.14205319 -0.35014442 -0.17329502 -0.1871358 0.30725583 -0.07290549 -0.3218781 -0.1462284
0.32081717 0.015880305 -0.017739067 -0.23620133 0.32550597 0.27494127 0.21491168 -0.4052054
0.14059828 -0.022183103 0.35749736 -0.16532929 0.0788064 -0.020354059 0.005925137 0.18603982
-0.00052954414 0.055615783 -0.004271781 0.3927332 0.21214907 -0.39499253 -0.11451184 0.29652044
00000000: 9959 c2be ebdb 35bd 1a1b b0be 3b8e db3c
00000010: b19f f9be d1c8 853d b723 b93c 26ac f13d
00000020: a01c b83c 8e7e c4be 60a2 a33e 996c 12bd
00000030: 6550 64bd 38c2 18be 83a5 363e 463a 52bd
00000040: f73b 023e 183b 7eba 4831 c33e b467 a5be
00000050: 36f4 adbe d02f 7d3e a8aa 213e 2724 a2be
00000060: 1595 92bd c6f3 a73e 938e 1dbd 842e 81be
00000070: 2f35 58be 215a 303e 1886 5cbe a509 5bbe
00000080: 9119 ca3d c690 0fbd f2f0 263e 1243 e73c
00000090: 2aaa 6c3c ed91 493e 4edc 273e 2fe0 b1be
000000a0: 988d 12bf 0794 823e 108b 0e3e 1e16 d4ba
000000b0: 1ea7 65be a798 833e a0e1 61be 5ef6 adbe
000000c0: ee04 4cbe 16cd 883e 146b e43e 9a52 5ebe
000000d0: 4891 243e a304 883d 9f5d 84be b32f bfbe
000000e0: 2d9e 1ebf 99b7 66be abe2 53be 923a 03bf
000000f0: 4c11 0a3e 9289 13be 0b5b 38bd 129c 1ebe
00000100: c875 f2bd 2201 713e 5004 24be 5de0 63be
00000110: 265e 16bf 308e eebe ec0f 4e3e 360f 113b
00000120: 94b0 a03e 815a c0be b9d6 29be b0f0 983e
00000130: 5991 8fbe 08fd 93be cc09 f0be 5214 a73e
00000140: 8c35 bbbe 20a6 a83e 973d 2fbe 2b8a d03d
00000150: ab27 183e 1023 723c 7773 d9be 006d b4bd
00000160: 5749 dcbe 8b33 23bd 7732 793e 1b48 9fb7
00000170: 95a7 cbbe 1e67 eebe a6c0 703e 1150 07be
00000180: 388d 0c3e 74ea 573e 3278 fe38 3904 bd3e
00000190: 8c23 52be e632 963e b9c7 a1be 7a1b aa3e
000001a0: 3e32 1e3d 552d 3cbe b64d 85be e80a af3d
000001b0: b083 823e 74aa e23d e2f6 4cbd ba92 fcbd
000001c0: 1f47 ce3d 8179 2b3f 7cc2 ebbe f895 0fbd
000001d0: e1b4 77be 3907 cdbe b83b 90bd 625c 173e
000001e0: 1392 06be 86dd e8bc f893 093e 185b 713e
000001f0: 17ae 7cbe c9e5 293e d54f b4bd 9a81 9139
00000200: c927 cb3d 3e5f 5f3d 8bfb 9fbe d1f6 b3bc
00000210: 072c 7c3e 8e21 93be f6a1 2ebe 77c0 5c3e
00000220: 6ac1 30be a20a 803e 4d42 12bf e29c 883e
00000230: d9af 53be 43b1 92be 1b8f 8abe cbc6 fe3c
00000240: 2834 9839 3a9a 54bc c133 6c3e 0866 7fbe
00000250: 17fa 91be fa9b 593d 1e1a 8bbe 8870 123e
00000260: 5181 02bf dd4b 46be b263 e83e 00b0 26be
00000270: 7cd7 e2be 6b16 09bf e970 45be d8d7 cdbe
00000280: 907d 84be 983e 5cbe 3d85 f43d 09a0 20bd
00000290: 944f 7c3b bbf6 9fbe cd73 a0be 38e2 473e
000002a0: ddc0 ecbc d2b2 98be c9b8 87bc b5e6 9fbe
000002b0: a382 6bbc 2779 f23c 5fdf bfbd 8ebb 963d
000002c0: 63ca 4cbe 8741 febd 8919 33be 8389 91bd
000002d0: ab65 3cbe 83c1 59bd 676f ac3d bdb6 68be
000002e0: 3522 7ebe 4d51 f5bd 4ac0 36bf 034b 423e
000002f0: 19a9 99be c07b fbbe 41d7 9cbe 790a 9f3d
00000300: a634 1e3e 2f1f 183f 518c 3dbd 0bcc 59be
00000310: 6ef0 25bd 96a9 65be af75 a8be 41a6 f23e
00000320: 83c7 b63d 71e8 b43d bf14 aebe 0ea1 1cbe
00000330: 49e0 7ebd 7094 c5be 6282 9c3e 2cd0 b13e
00000340: 563e fc3d e104 783e 1592 973d 7a94 8c3d
00000350: 6925 8abe 4eb2 8ebd fa4c 46bd 139d a2be
00000360: f8c3 11bd 6f7f 15be 88de a73e 8612 bdbe
00000370: aa77 a23d 7537 dabe adaf 9e3d 4e1b d6be
00000380: 6476 11be 2146 b3be 4074 31be 87a0 3fbe
00000390: a350 9d3e 794f 95bd 35cd a4be e6bc 15be
000003a0: 2642 a43e 6a17 823c 8551 91bc c3de 71be
000003b0: b8a8 a63e 1ac5 8c3e cf11 5c3e 1577 cfbe
000003c0: fff8 0f3e 57b9 b5bc e509 b73e 154c 29be
000003d0: 4065 a13d 8ebd a6bc a727 c23b 3981 3e3e
000003e0: 1bd1 0aba 60cd 633d 4cfa 8bbb 5314 c93e
000003f0: 9b3d 593e 763c cabe 2f85 eabd 87d1 973e

net.2.weight f4 [300, 400]
-0.02379419 -0.7268299 0.018543338 -0.6871919 -0.11597849 0.11468291 0.113241814 0.3919748
-0.30068815 -0.10758957 0.1389311 0.6866478 -0.42743397 -0.7715761 -0.32104948 0.12826505
-0.14274746 0.526625 0.035200864 -0.039095744 -0.061063863 0.13243316 0.25371435 0.5381472
-0.6359624 -0.31694514 0.12210162 -0.20469747 0.23862752 -0.23036674 -0.34119022 0.05369607
0.15480734 0.15229625 -0.1523247 0.27729756 -0.07604908 0.13442603 0.10170923 -0.32811502
0.048370562 0.109747164 -0.1775592 0.08752062 -0.10364982 0.0305579 -0.3285941 0.29236442
-0.6346002 0.021973873 -0.04343771 -0.23399529 0.317542 0.00398392 -0.08479023 -0.22579823
0.11316108 0.051417857 0.120141 0.35769144 0.111659676 0.21015039 -0.17360678 0.1782383
-0.31349012 0.013872849 -0.041556474 -0.4152296 0.16685826 0.06464427 -0.11583785 0.22553122
-0.005246598 0.40974846 0.09858625 -0.21400444 0.051177274 -0.17501828 -0.14181443 0.045885593
-0.017655691 -0.005198069 0.39952904 0.14685139 0.12821154 0.06176095 -0.037140306 0.015625024
-0.1688417 -0.16848263 0.073541485 0.57229155 -0.37064996 -0.037589576 0.19553386 -0.007000545
0.02026245 0.18769792 0.0683008 -0.08971063 0.32667118 0.08866424 -0.08945813 0.18502899
0.1262875 -0.4067386 -0.031459324 -0.38984692 -0.122448266 -0.07236883 -0.0412554 0.121917136
0.34063992 -0.02901763 0.17098728 0.18814209 -0.11662175 0.40145227 -0.15128464 -0.041381054
-0.16486661 -0.3509724 -0.05100092 0.40797246 -0.57734835 -0.10223033 -0.48738512 0.20762357
0.17351805 0.13118792 0.1800364 0.3290043 0.20171615 -0.52372915 -0.09266991 0.18436432
0.27087498 0.22648783 -0.06405805 0.22286807 0.06242127 0.14702371 -0.43727604 -0.23191729
-0.09506668 0.12029704 0.22439955 -0.56225455 -0.14405806 -0.003488064 -0.051855326 -0.08805806
0.42897508 -0.8780953 -0.038314868 -0.25418884 0.06633124 0.013747555 -0.025364451 -0.27913076
0.0024419634 -0.6852293 0.15226412 -0.4294063 0.010771857 0.7917538 -0.056530435 0.70877206
-0.72845083 -0.43055215 0.20240285 -0.090584904 0.17127472 0.23957199 -0.4183993 0.1719616
-0.47989795 0.2342015 -0.8299115 -0.8024376 0.2882828 0.19712031 -0.025137758 -0.13885687
-0.36775535 0.3414683 0.10274831 -0.6831178 0.1525138 0.0048636775 0.3203504 0.11964808
0.19172056 0.009248854 -0.45639408 -0.29136583 0.21559069 -0.23715247 0.32542077 0.056965694
0.14197633 0.3094433 0.30164608 -0.13834432 0.10564683 -0.0033656044 0.0965722 -0.12763476
0.054501027 0.08197696 0.013641851 0.07205984 0.050774373 0.16314465 -0.09290729 -0.726386
0.045376252 -0.6015846 -0.37733042 0.39078802 0.13450128 0.07408245 0.12899423 0.73946404
0.28154388 0.43307257 -0.04380922 0.18267037 -0.15852799 0.22772965 0.028084818 -0.06336664
-0.014228721 0.03313684 0.18906139 0.20749483 -0.04009732 -0.31744683 0.072882816 0.06780395
-0.23383822 -0.119286574 0.11913477 0.15905643 -0.1767973 -0.12349825 0.31486347 -0.22457455
0.49713472 -0.70012265 -0.2344749 0.088388555 0.049245607 0.2716195 0.33072 0.04742905
00000000: 08ec c2bc 8611 3abf 33e8 973c cfeb 2fbf
00000010: 2186 edbd e0de ea3d 53eb e73d ecb0 c83e
00000020: ccf3 99be ec57 dcbd f443 0e3e 26c8 2f3f
00000030: a0d8 dabe 0386 45bf 9960 a4be ea57 033e
00000040: 642c 12be e5d0 063f c82e 103d dc22 20bd
00000050: 1a1e 7abd 8f9c 073e d9e6 813e 04c4 093f
00000060: 6fce 22bf a246 a2be 6a10 fa3d 379c 51be
00000070: c65a 743e 42e5 6bbe 7cb0 aebe 69f0 5b3d
00000080: d185 1e3e 8cf3 1b3e 02fb 1bbe f2f9 8d3e
00000090: 9fbf 9bbd faa6 093e ee4c d03d b1fe a7be
000000a0: 3620 463d 1fc3 e03d 14d2 35be 033e b33d
000000b0: 5b46 d4bd 9054 fa3c 7c3d a8be cab0 953e
000000c0: 2975 22bf 8d02 b43c bdeb 31bd 769c 6fbe
000000d0: dd94 a23e 8b8b 823b 80a6 adbd a737 67be
000000e0: ffc0 e73d 889b 523d 7c0c f63d 5523 b73e
000000f0: d4ad e43d aa31 573e fac5 31be 1a84 363e
00000100: c781 a0be f24a 633c 1f37 2abd f998 d4be
00000110: e4dc 2a3e 3764 843d 653c edbd a8f1 663e
00000120: a7eb abbb 8dca d13e 96e7 c93d fb23 5bbe
00000130: 439f 513d fe37 33be cd37 11be 88f2 3b3d
00000140: aba2 90bc 9054 aabb 128f cc3e 3660 163e
00000150: e349 033e 0df9 7c3d 6f20 18bd 0d00 803c
00000160: d7e4 2cbe b686 2cbe eb9c 963d b381 123f
00000170: d5c5 bdbe 87f7 19bd 073a 483e d464 e5bb
00000180: 70fd a53c e233 403e 4ae1 8b3d 35ba b7bd
00000190: 7241 a73e 9995 b53d d335 b7bd 3d78 3d3e
000001a0: 8351 013e 0b40 d0be 7edb 00bd 049a c7be
000001b0: 28c6 fabd 1c36 94bd 6cfb 28bd b1af f93d
000001c0: 5b68 ae3e 61b6 edbc 4a17 2f3e 52a8 403e
000001d0: 62d7 eebd 278b cd3e 5cea 1abe 2e7f 29bd
000001e0: cbd2 28be a8b2 b3be 57e6 50bd c4e1 d03e
000001f0: 1acd 13bf 235e d1bd 8b8a f9be 469b 543e
00000200: b7ae 313e 2056 063e 765b 383e 4073 a83e
00000210: ae8e 4e3e 1d13 06bf b9c9 bdbd 00ca 3c3e
00000220: 20b0 8a3e 6dec 673e de30 83bd 8737 643e
00000230: 72ad 7f3d 628d 163e a5e2 dfbe ba7b 6dbe
00000240: 52b2 c2bd 4b5e f63d ffc8 653e eaef 0fbf
00000250: f583 13be 0198 64bb 4066 54bd c957 b4bd
00000260: 9fa2 db3e dbca 60bf 0df0 1cbd 0a25 82be
00000270: acd8 873d 6d3d 613c 1cc9 cfbc 3aea 8ebe
00000280: 5909 203b 306b 2fbf 20eb 1b3e 24db dbbe
00000290: 717c 303c 61b0 4a3f 758c 67bd 1672 353f
000002a0: c17b 3abf 5571 dcbe b142 4f3e 9484 b9bd
000002b0: a462 2f3e 5c52 753e 6f38 d6be b416 303e
000002c0: 2fb5 f5be 85d2 6f3e 1475 54bf 8d6c 4dbf
000002d0: ce99 933e e8d9 493e b3ed cdbc 7f30 0ebe
000002e0: 6e4a bcbe efd4 ae3e b56d d23d cfe0 2ebf
000002f0: 942c 1c3e 7c5f 9f3b f804 a43e 0d0a f53d
00000300: 6552 443e 8188 173c 7cac e9be e72d 95be
00000310: cec3 5c3e 19d8 72be 8d9d a63e dc54 693d
00000320: 3e62 113e 5a6f 9e3e 5b71 9a3e 22aa 0dbe
00000330: 5d5d d83d 7991 5cbb a5c7 c53d b0b2 02be
00000340: 783c 5f3d 89e3 a73d 1282 5f3c 1c94 933d
00000350: caf8 4f3d 640f 273e 2d46 bebd 6ff4 39bf
00000360: 73dc 393d 7301 1abf 7431 c1be 5e15 c83e
00000370: b4ba 093e 8ab8 973d 1017 043e 844d 3d3f
00000380: 8526 903e b0bb dd3e 4c71 33bd f10d 3b3e
00000390: 2955 22be f631 693e 2212 e63c 5ec6 81bd
000003a0: 951f 69bc 7fba 073d 4f99 413e 8679 543e
000003b0: 163d 24bd 6488 a2be 9643 953d ccdc 8a3d
000003c0: 4973 6fbe 854c f4bd eefc f33d b0df 223e
000003d0: 5a0a 35be a7ec fcbd c935 a13e dff6 65be
000003e0: 7188 fe3e 3d3b 33bf 301a 70be 0f05 b53d
000003f0: c3b5 493d b611 8b3e 2254 a93e f744 423d

net.2.bias f4 [300]
0.11329354 -0.16102447 -0.01612813 -0.10493327 -0.18725505 -0.101713285 0.066576645 -0.035985008
-0.19375625 -0.022513358 -0.11477921 0.06358251 -0.15888028 -0.07779135 -0.058768295 -0.025659641
0.07316394 -0.1935107 -0.048073296 -0.13870317 -0.06863756 -0.0633285 -0.08481033 -0.009796728
-0.0027869146 -0.06753492 -0.047370356 -0.14859267 -0.03922096 0.004023437 -0.059435114 -0.0138211725
-0.10886885 -0.02673775 -0.057348114 -0.054677006 -0.0005630322 -0.05415409 -0.006839567 -0.047415286
0.023503415 0.04183378 0.09724332 -0.05268215 0.0060804724 -0.08637855 -0.07789917 -0.09784524
-0.0698907 0.09752698 -0.17378974 0.044622432 -0.035791066 0.073711984 -0.074825495 -0.07187349
-0.08765303 0.20042992 -0.05161535 -0.041291256 -0.022267329 -0.018111905 -0.15187131 -0.18231313
-0.059547532 -0.06394203 0.13237043 -0.10451344 -0.053949833 -0.16100763 -0.043760613 0.030666564
-0.054860316 -0.024970565 -0.09213587 -0.02997847 0.102100104 -0.028471315 0.10182191 0.14014773
-0.03078475 -0.14168091 -0.04041794 0.016460152 -0.027194042 -0.046129856 -0.21536225 -0.07010957
-0.01986157 -0.08369132 -0.055603262 -0.026128551 -0.2355001 -0.060274314 -0.052138597 -0.013906051
0.05133095 0.13300698 -0.06856807 -0.0020927663 0.013181779 -0.07329696 0.032082018 -0.12189998
0.085464485 0.046982143 -0.103210345 -0.04471707 0.013193302 0.090683535 0.08617321 -0.06366808
-0.016800737 -0.04330781 -0.14265434 -0.12527284 0.031782445 -0.0167153 -0.08559113 -0.013123774
-0.1107723 -0.13499476 0.04278677 -0.20190917 -0.00801515 -0.1351308 0.020233864 -0.08349253
-0.066931345 -0.16720639 0.014690981 -0.109504305 -0.1361699 0.007676034 -0.011561334 0.1194241
0.048730593 0.102807775 -0.0015966494 -0.1499581 -0.11829919 -0.14293304 0.051141817 -0.018678052
-0.17205873 0.0007051743 -0.05347835 -0.08328518 0.024309985 -0.026456619 0.008525881 0.076614976
-0.0032419509 -0.116834626 -0.038252242 -0.05817695 -0.045344353 0.023115065 -0.038102552 -0.0064822054
-0.0682631 -0.04938531 -0.07525415 -0.071735136 -0.011340673 0.022116594 -0.08571071 -0.07744351
-0.008910933 -0.06913489 0.005015724 -0.031193184 0.012088463 -0.058118593 0.003268741 0.08727685
0.025409825 -0.13546184 -0.0057358136 -0.0266821 -0.13689747 0.012989878 -0.02964132 -0.03216776
-0.11229294 0.16319057 0.14407264 -0.08450401 -0.20782484 -0.044458847 0.07531603 -0.021507131
-0.08695885 -0.026223684 0.1374116 0.15176933 -0.054567914 -0.03395897 0.014188282 -0.0583117
-0.06378333 -0.077318 -0.0015281534 -0.09564116 -0.06041846 -0.030998278 -0.06821228 0.004464089
-0.19033243 -0.13519487 0.14879693 -0.023782851 -0.059012197 -0.032566562 -0.087985724 0.17711067
-0.09762102 0.01135761 -0.046453923 -0.03695941 -0.060596965 -0.029267035 -0.03597472 -0.14137827
-0.039192148 -0.051132593 -0.032020114 -0.043854877 0.16292532 0.0016907312 0.12490834 0.0637143
-0.016342051 -0.06981907 -0.16604716 -0.061971325 0.17137532 -0.064284965 -0.12628406 -0.2526509
-0.13363035 -0.039538108 -0.07410767 -0.12866092 -0.11707549 -0.02200799 -0.11084401 -0.079350725
0.14167991 -0.05983694 -0.0053077415 -0.01080901 -0.063803755 -0.05140715 -0.12128669 0.0066144774
00000000: 7206 e83d 99e3 24be 241f 84bc 41e7 d6bd
00000010: cabf 3fbe 0e4f d0bd 5659 883d 0465 13bd
00000020: 0a68 46be ef6d b8bc 5d11 ebbd 8c37 823d
00000030: 83b1 22be 1251 9fbd 06b7 70bd 2b34 d2bc
00000040: fad6 953d ab27 46be 81e8 44bd 3408 0ebe
00000050: d991 8cbd 5fb2 81bd 0ab1 adbd 7582 20bc
00000060: aba4 36bb c04f 8abd 6b07 42bd ad28 18be
00000070: 28a6 20bd 09d7 833b 3c72 73bd 3372 62bc
00000080: a2f6 debd 2009 dbbc dbe5 6abd fff4 5fbd
00000090: 7498 13ba aed0 5dbd 721e e0bb 8836 42bd
000000a0: 3c8a c03c e659 2b3d 8127 c73d 3dc9 57bd
000000b0: b33e c73b 3de7 b0bd 9a89 9fbd 1663 c8bd
000000c0: db22 8fbd 3abc c73d f0f5 31be 03c6 363d
000000d0: a799 12bd 4ff6 963d 1c3e 99bd 6932 93bd
000000e0: 6f83 b3bd 803d 4d3e 9e6a 53bd 0521 29bd
000000f0: f969 b6bc 6b5f 94bc 2784 1bbe 4bb0 3abe
00000100: 1de8 73bd 0af4 82bd 1d8c 073e 240b d6bd
00000110: 80fa 5cbd 2fdf 24be 543e 33bd 7238 fb3c
00000120: 36b5 60bd 128f ccbc bbb1 bcbd 6995 f5bc
00000130: dc19 d13d ad3c e9bc 0188 d03d e382 0f3e
00000140: 4d30 fcbc cd14 11be 488d 25bd 71d7 863c
00000150: 0ac6 debc a9f2 3cbd ec87 5cbe 9b95 8fbd
00000160: bbb4 a2bc 5b66 abbd 3fc0 63bd 8b0b d6bc
00000170: f026 71be 33e2 76bd 488f 55bd 35d6 63bc
00000180: 6740 523d fb32 083e 6b6d 8cbd cb26 09bb
00000190: 63f8 573c b71c 96bd 6f68 033d b2a6 f9bd
000001a0: 0108 af3d 5970 403d f25f d3bd 3f29 37bd
000001b0: b828 583c 4ab8 b93d 947b b03d 6964 82bd
000001c0: b3a1 89bc 8863 31bd fb13 12be 8647 00be
000001d0: 4f2e 023d 86ee 88bc 674a afbd 1905 57bc
000001e0: 96dc e2bd 113c 0abe 2e41 2f3d 47c1 4ebe
000001f0: fa51 03bc ba5f 0abe 7dc1 a53c 22fe aabd
00000200: 4d13 89bd 2738 2bbe 71b2 703c cb43 e0bd
00000210: 1f70 0bbe 3d87 fb3b c06b 3dbc 9f94 f43d
00000220: bb99 473d e28c d23d aa46 d1ba 9e8e 19be
00000230: d946 f2bd 0a5d 12be 157a 513d b702 99bc
00000240: 2a30 30be 72db 383a 1d0c 5bbd 6c91 aabd
00000250: bc25 c73c 8dbb d8bc 23b0 0b3c 50e8 9c3d
00000260: e976 54bb fe46 efbd 62ae 1cbd f44a 6ebd
00000270: 00bb 39bd ce5b bd3c 6c11 1cbd ae68 d4bb
00000280: 86cd 8bbd 4048 4abd d91e 9abd dfe9 92bd
00000290: 3bce 39bc dc2d b53c 1989 afbd b49a 9ebd
000002a0: 29ff 11bc 9896 8dbd f15a a43b d988 ffbc
000002b0: b00e 463c c30d 6ebd 6038 563b 35be b23d
000002c0: 4428 d03c 82b6 0abe 7ef3 bbbb 6b94 dabc
000002d0: da2e 0cbe 7fd3 543c 5bd2 f2bc 57c2 03bd
000002e0: d7f9 e5bd 6e1b 273e c787 133e 7010 adbd
000002f0: 09d0 54be 7b1a 36bd 4a3f 9a3d b92f b0bc
00000300: 7b17 b2bd 0dd3 d6bc a0b5 0c3e 6b69 1b3e
00000310: 9b82 5fbd 9018 0bbd f875 683c 40d8 6ebd
00000320: d6a0 82bd e658 9ebd 524c c8ba 83df c3bd
00000330: 5979 77bd 1af0 fdbc e1b2 8bbd 7e47 923b
00000340: 81e6 42be 8670 0abe 395e 183e 41d4 c2bc
00000350: c6b6 71bd 8464 05bd dc31 b4bd 805c 353e
00000360: 88ed c7bd 4515 3a3c 7846 3ebd c062 17bd
00000370: 8634 78bd 6cc1 efbc 3a5a 13bd 77c5 10be
00000380: f287 20bd 6970 51bd 8627 03bd 2ca1 33bd
00000390: e5d5 263e 869b dd3a f2cf ff3d a57c 823d
000003a0: c4df 85bc 4dfd 8ebd 4408 2abe a5d5 7dbd
000003b0: 037d 2f3e d6a7 83bd 9c50 01be 755b 81be
000003c0: 65d6 08be b6f2 21bd c3c5 97bd b0bf 03be
000003d0: 46c5 efbd 1a4a b4bc 2f02 e3bd a282 a2bd
000003e0: 8a14 113e 9417 75bd 90ec adbb 4618 31bc
000003f0: 8bab 82bd 4e90 52bd 2865 f8bd 42be d83b

net.4.weight f4 [4, 300]
0.47518745 0.103743464 -0.026853696 -0.03245921 -0.11089003 0.4024081 0.15973373 0.048421144
0.37706035 0.011486106 -0.029258564 -0.14707518 -0.17134266 -0.11053537 0.046313576 -0.051996596
0.20443578 0.25845522 0.02331081 0.13641141 0.38476628 0.0459647 -0.105631635 -0.026820656
-0.035245337 -0.021239476 -0.023055559 -0.20711373 0.045039274 0.032875884 0.012038085 -0.20088497
0.012134128 -0.33984494 -0.3899142 0.011575292 -0.03457331 0.56143177 0.1373909 -0.022288071
-0.06413553 0.04864262 0.23148693 -0.05960263 -0.079182774 -0.11226371 -0.021623036 -0.33960095
-0.0037833955 0.22445016 -0.21091373 0.13637055 0.0025770362 0.07307595 -0.07321681 -0.06742403
0.095611945 0.21481937 0.02589845 0.05156733 0.2570212 -0.051954035 0.08012327 0.5487248
0.07948621 0.0038569828 -0.28709674 -0.06690303 0.073393114 0.19739759 -0.019822918 0.119047314
0.29022774 0.025365695 0.18174703 0.009031831 0.24122076 -0.011008846 0.07704232 0.23132612
-0.029436018 0.4511355 0.0005571122 -0.0010501733 -0.009065574 0.043560047 0.10717057 -0.19893232
0.03388381 -0.14337757 -0.0036588535 -0.045461502 0.1557026 0.018583465 -0.24847451 0.027069783
0.26806265 0.40818632 -0.051897656 -0.008150876 0.43538746 -0.09833758 -0.045920394 -0.22484912
0.11780106 0.3071039 0.21121503 -0.2907484 0.024023592 0.26964825 0.24165247 -0.11799654
0.008685161 0.09881082 0.06397018 -0.08652183 -0.030127663 0.059242465 -0.11098906 -0.39568216
0.0029651404 0.11574644 0.49867782 0.3583927 0.13765045 0.20826942 -0.008146781 0.14620207
0.0016641353 -0.11280622 -0.021781327 -0.19657695 0.07070709 -0.031977016 -0.05173097 0.14945018
0.32573128 -0.3617059 -0.016543828 0.43542692 0.031410072 0.095546454 0.22236376 0.26301467
-0.16086465 -0.02416236 0.0074269823 -0.20665374 -0.025362872 0.25603706 0.25962964 -0.26527154
0.3414318 0.11465822 0.0675651 0.29180846 -0.028887035 0.0076937582 -0.0025186567 -0.21162483
0.088710554 -0.012736891 -0.34621197 -0.28770503 0.22548823 0.09120347 0.07119179 -0.025421767
0.030857302 -0.28312364 0.21234843 0.044290885 -0.021127751 0.020821651 -0.06000364 0.026205119
0.035206188 -0.27158052 -0.035218704 -0.023012234 0.50172883 -0.0320028 0.068737365 0.034256417
0.22449678 0.25093547 0.44192237 -0.1460622 0.061739404 0.13527176 -0.51113254 -0.095805064
-0.18043439 0.044078317 0.18535103 0.40358627 -0.007757297 -0.02822478 0.30094716 -0.2351017
0.03412597 -0.24275692 0.03517499 0.080493614 -0.24864866 -0.08138265 0.07975372 0.031024583
0.32691446 0.42832366 0.2470566 0.043860335 0.049180545 0.018790236 0.26856315 -0.3079409
-0.08085717 0.24767265 0.0050203227 0.031492688 0.22100094 0.08738408 0.0029540744 -0.107226074
0.46087456 0.6160512 -0.016381482 0.021549134 0.16798712 -0.013513093 0.19350645 -0.30724886
-0.022855487 0.055480253 0.092541695 -0.04191357 0.19907002 0.012612948 0.38495564 0.41691837
0.14891556 -0.35137224 0.11516507 0.022705754 0.017300364 0.013224116 0.37554586 -0.112839915
0.23544627 0.022832297 -0.2827489 -0.04612154 -0.008940515 -0.063383825 0.36506996 -0.0079201795
00000000: c54b f33e 7477 d43d 48fc dbbc f3f3 04bd
00000010: 501a e3bd 6f08 ce3e 3d91 233e 4055 463d
00000020: 0e0e c13e 3830 3c3c a8af efbc e09a 16be
00000030: 7374 2fbe 5e60 e2bd 4eb3 3d3d 62fa 54bd
00000040: 9d57 513e 3e54 843e 50f6 be3c 6faf 0b3e
00000050: 1600 c53e 7b45 3c3d 6655 d8bd feb6 dbbc
00000060: 6a5d 10bd 69fe adbc 03df bcbc 9f15 54be
00000070: 1a7b 383d dda8 063d 633b 453c cab4 4dbe
00000080: 39ce 463c 2800 aebe d6a2 c7be 4ba6 3d3c
00000090: be9c 0dbd feb9 0f3f 33b0 0c3e 7995 b6bc
000000a0: 7d59 83bd 7c3d 473d e90a 6d3e e321 74bd
000000b0: 942a a2bd 84ea e5bd cb22 b1bc 2de0 adbe
000000c0: d8f2 77bb 43d6 653e c5f9 57be b9a4 0b3e
000000d0: 7ee3 283b d8a8 953d b2f2 95bd 9c15 8abd
000000e0: 32d0 c33d 9cf9 5b3e fc28 d43c 4438 533d
000000f0: 4898 833e c1cd 54bd ab17 a43d 3a79 0c3f
00000100: abc9 a23d 6fc5 7c3b 58fe 92be 7504 89bd
00000110: 214f 963d 9822 4a3e ac63 a2bc 14cf f33d
00000120: bb98 943e b8cb cf3c e51b 3a3e 3ffa 133c
00000130: 9302 773e 725e 34bc 5dc8 9d3d c1e0 6c3e
00000140: ce23 f1bc 3bfb e63e 2b0b 123a f8a5 89ba
00000150: c687 14bc 056c 323d 3e7c db3d eab4 4bbe
00000160: c0c9 0a3d 92d1 12be 60c9 6fbb d735 3abd
00000170: 8170 1f3e 5a3c 983c 1a70 7ebe 73c1 dd3c
00000180: 823f 893e ccfd d03e a392 54bd 408b 05bc
00000190: 1beb de3e 3765 c9bd 0617 3cbd d93e 66be
000001a0: af41 f13d b93c 9d3e c148 583e f9dc 94be
000001b0: 20cd c43c 560f 8a3e bf73 773e 2ca8 f1bd
000001c0: 354c 0e3c 545d ca3d cc02 833d 5b32 b1bd
000001d0: 4ace f6bc 3aa8 723d 3b4e e3bd da96 cabe
000001e0: cd52 423b 780c ed3d b352 ff3e 3f7f b73e
000001f0: 3df4 0c3e 9444 553e 137a 05bc ffb5 153e
00000200: 1d1f da3a f306 e7bd c16e b2bc 784b 49be
00000210: e1ce 903d 55fa 02bd dbe3 53bd 7809 193e
00000220: 40c6 a63e 8431 b9be ec86 87bc 47f0 de3e
00000230: d9a7 003d dcad c33d 53b3 633e dca9 863e
00000240: b4b9 24be 24f0 c5bc 0b5e f33b 0a9d 53be
00000250: ccc5 cfbc 4a17 833e 2dee 843e acd1 87be
00000260: 26d0 ae3e eed1 ea3d 925f 8a3d eb67 953e
00000270: 81a4 ecbc ec1b fc3b 0c10 25bb 2eb4 58be
00000280: e1ad b53d 65ae 50bc b242 b1be 134e 93be
00000290: 63e6 663e e3c8 ba3d 00cd 913d 4f41 d0bc
000002a0: 74c8 fc3c 95f5 90be de71 593e 5c6a 353d
000002b0: 1b14 adbc 2b92 aa3c 60c6 75bd 1eac d63c
000002c0: 5d34 103d 9a0c 8bbe 7d41 10bd 2784 bcbc
000002d0: 4d71 003f 5e15 03bd 2dc6 8c3d 7550 0c3d
000002e0: 7ce2 653e 9d7a 803e a643 e23e 5491 15be
000002f0: 75e2 7c3d ae84 0a3e 95d9 02bf 7235 c4bd
00000300: cbc3 38be 778b 343d a9cc 3d3e dca2 ce3e
00000310: ec30 febb a737 e7bc bf15 9a3e 80be 70be
00000320: acc7 0b3d 4595 78be a613 103d d6d9 a43d
00000330: c19d 7ebe f2ab a6bd eb55 a33d 4427 fe3c
00000340: 5561 a73e 3d4d db3e 68fc 7c3e e5a6 333d
00000350: 8a71 493d fbed 993c 1c81 893e 6eaa 9dbe
00000360: 7298 a5bd e69d 7d3e 8581 a43b 7afe 003d
00000370: 124e 623e 6df6 b23d 2599 413b 5899 dbbd
00000380: c0f7 eb3e 88b5 1d3f 7532 86bc cf87 b03c
00000390: d104 2c3e 0566 5dbc 8e26 463e b94f 9dbe
000003a0: 6e3b bbbc 433f 633d 8086 bd3d 90ad 2bbd
000003b0: 03d9 4b3e 8aa6 4e3c e818 c53e 5376 d53e
000003c0: 527d 183e 10e7 b3be aadb eb3d 6b01 ba3c
000003d0: 7eb9 8d3c f6a9 583c 8c47 c03e 9d18 e7bd
000003e0: d418 713e cc0a bb3c 77c4 90be f1e9 3cbd
000003f0: 3d7b 12bc 61cf 81bd 73ea ba3e a4c3 01bc

net.4.bias f4 [4]
-0.057982683 -0.014060978 0.1213746 -0.11813644
00000000: 407f 6dbd 0460 66bc 3f93 f83d 85f1 f1bd
