lab6/dqn.pth (torch_old, 501612 bytes, 6 tensors)

net.0.weight f4 [400, 8]
00000000: 6f90 d83d 24e8 d43e ef2d c2be 6fc0 093d
00000010: 9055 ce3c 8307 763e 4d82 8dbe 870a 163f
00000020: 99b0 3bbf 4e8c f1bd 5402 8d3e 2301 1d3d
00000030: eac8 a53f ee69 0e3e 6681 4cbe f105 b43e
00000040: 45a4 4cbe c692 14c0 9ed2 06bd 0e9b 343e
00000050: 6570 7a3e 5ba1 80be 8e4b 39be 7975 c2bd
00000060: 5753 42be 3b98 b53d 70fc 9abd 2aa7 193e
00000070: 8dc9 ee3e 3042 b0bd cda9 003f 434e 4abf
00000080: 76c1 04bf 1501 973c 599d 09bd 9e7a 2bbe
00000090: 60c9 383f 13b8 7bbd 8060 99be 93e6 02be
000000a0: 4125 27be 6a9b 88be 9ff8 9bbe 6482 9f3f
000000b0: d2c8 b23c 5438 c93e faa8 0c3f 2d20 b4bd
000000c0: 5ca5 233f 0c1e d9be 77d8 313e f072 06bf
000000d0: 0d8e a8bd 62b9 cdbd 7cf6 05bf 858c 953c
000000e0: 6ed9 a43c b73e aebe 6d06 1bbf 097c 91be
000000f0: 5eae 8abe 359b 96bd b152 1fbe 8c34 02bf
00000100: 7690 dfbc 2868 053e 9a32 16be a90b 153e
00000110: 7408 4dbd a782 dcbc 92a4 15be b9e2 99bd
00000120: 7eef e53e fbe8 90be d38e 42be 75ab 003e
00000130: 3ae1 5bbe fc88 4bbd 4c82 fbbe e986 193d
00000140: c8bb 2fbe a2df b3be f2a1 35be ac28 143f
00000150: 0787 6ebf e871 50be f913 21be 550a 1c3c
00000160: 6241 c8be 67eb 643e f68a 5bbe 3d49 80be
00000170: fa61 12be 668a 953e 80ff c33e 8733 153e
00000180: a563 7d3f fb85 afbc 0c03 da3e 07d6 ebbe
00000190: d37d efbe d543 d13c c342 783c 67d6 1abe
000001a0: 0574 65bf 2e9c 3bbe 13a5 953e ebed 933d
000001b0: 2e39 4b3e b443 903c 8e97 85be 9787 113d
000001c0: 1b5e bf3e 3e99 83be 75ea 8dbc 5d40 9a3d
000001d0: 5159 66bf d601 babc 3eab d1be 9be3 f03e
000001e0: 0309 883c cfa3 2fbd 6060 adbe 2233 663f
000001f0: af6b ff3e b3f2 a03e 399b 74bc 4335 b53e
00000200: 5207 62bf 1c06 43be 5c6d 1a3c 4b66 823d
00000210: 4f55 043f cd8d de3d 22d9 d23e 672d a23d
00000220: 94be 1c3f 2f50 593e 5590 c3be b4db a0bd
00000230: 500d fd3e 7310 a83d c01a 19bf f2e9 cabe
00000240: 8d58 15bf 2029 0bbe e044 79bd b447 afbe
00000250: 6424 07bf 2ab4 0cbd ebde 31bf eb9e 01be
00000260: 4ab1 0c3e dbcc a1bf 27f6 acbd 2965 35bf
00000270: 645c 803d 18d2 21bf 1511 9cbe 3947 473d
00000280: d75f 0c3e 3932 26bf 7294 26bb f342 a8be
00000290: 61d2 1dbf 02bc eabe 84ca ecbe aca0 0c3f
000002a0: 5b57 8cbe ab29 223e a3b2 59be 1b1b d73e
000002b0: 5ba5 08bd 9657 cbbe 4d05 87be f3c8 8dbe
000002c0: 3644 2f3e ff18 30be 15c9 b4bd 8323 8b3f
000002d0: e649 173d 8cee dabe 8a8e 673d d828 d53d
000002e0: bd5c 933e dd6d 2ebe 22fa 07be e65c afbe
000002f0: 9ced 053f 554b 543e f5a0 72be 1747 fdbd
00000300: e002 d4bc c5bc ba3e d61e ca3e c210 943c
00000310: 696d 903d 0e34 10bd fe62 043e d5a9 5bbe
00000320: 4d83 f83d 8c56 8fbe f1cb 65bc 7505 dabe
00000330: f6da 30bf aebe c0be ecae abbe ee37 d8be
00000340: cda8 a9be c6d9 6bbe 41b7 c63d b658 8b3e
00000350: 57b2 c3ba 9394 4c3c ad3f 92bd 10ce 22be
00000360: a088 adbe 0dc5 15bf b123 023f 46bd 433f
00000370: bd45 9e3e 24cc 9bbe 2f75 793e 36e2 1bbe
00000380: 91bb 1d3f 0347 a6bf 0e6f 5e3e bca9 2b3d
00000390: dfc4 463e 63d0 293c 06c6 8b3e 2653 0a3e
000003a0: f650 56be 0c29 b2be eb29 173f c51f 503e
000003b0: 0f64 163f 31cc 4e3e 8a2c ac3e 83c6 48be
000003c0: 1143 94bf 3321 f5bd 23e0 8cbe d5a7 533d
000003d0: a1bf 323c c38e 973d 6d5a 9ebd 7870 e83d
000003e0: 57af 733e 13cc c2bd 1ce2 d13e 97db 733f
000003f0: 704b bf3e 3758 053e ee83 ee3e 0fd6 943d
0.105744235 0.4158336 -0.3792567 0.033630785 0.025187284 0.24026303 -0.27638474 0.58609813
-0.7331634 -0.11794339 0.2754084 0.038331162 1.2951939 0.13907596 -0.19971237 0.35160783
-0.19984539 -2.3214583 -0.032915704 0.17637274 0.24456938 -0.25123104 -0.18095228 -0.094950624
-0.18977104 0.08866926 -0.0756768 0.15005174 0.46638146 -0.08606374 0.50259095 -0.7902567
-0.518577 0.018433133 -0.033597324 -0.16745993 0.72182274 -0.061454844 -0.29956436 -0.1278327
-0.16322805 -0.26681072 -0.3046312 1.2461667 0.021824274 0.39300787 0.5494534 -0.087951995
0.63924193 -0.42405736 0.17367731 -0.5251913 -0.08230219 -0.100451246 -0.5232923 0.018255481
0.02012321 -0.34032223 -0.6055668 -0.28414944 -0.27086157 -0.07353822 -0.15558888 -0.5086143
-0.027290564 0.13028014 -0.1466774 0.14555229 -0.05005689 -0.026917769 -0.1461356 -0.07513947
0.4490928 -0.2830275 -0.18999796 0.12565406 -0.21472636 -0.049691185 -0.49122846 0.037482176
-0.17161477 -0.35131556 -0.17737558 0.5787456 -0.93174785 -0.20355952 -0.15730275 0.009523948
-0.39112383 0.22355424 -0.21439728 -0.25055876 -0.14295188 0.29207152 0.3828087 0.14570437
0.9898017 -0.021426192 0.4258045 -0.46061727 -0.46775684 0.02554504 0.015152636 -0.1512085
-0.89630157 -0.18321297 0.29227504 0.072231136 0.19846031 0.017610408 -0.2609219 0.0355297
0.37376484 -0.25702852 -0.017323712 0.075318076 -0.89980036 -0.022705954 -0.4095096 0.4704865
0.01660586 -0.04288083 -0.3386259 0.8992177 0.49886844 0.31435165 -0.014929586 0.35392198
-0.8829242 -0.190453 0.009425487 0.06367167 0.5169267 0.1086689 0.41181284 0.07918816
0.612283 0.21221994 -0.38196054 -0.07854405 0.4942422 0.082062624 -0.5980644 -0.3963161
-0.5833824 -0.13589907 -0.0608567 -0.34234393 -0.527899 -0.034351505 -0.6948077 -0.12658279
0.13739505 -1.2640642 -0.08445387 -0.70857483 0.06267622 -0.632112 -0.30481783 0.048651908
0.13708435 -0.64920384 -0.002541807 -0.32863578 -0.6164914 -0.45846564 -0.46248257 0.54932666
-0.27410397 0.15836208 -0.21259551 0.42012867 -0.03336082 -0.3971526 -0.26371232 -0.27692375
0.17115864 -0.17197035 -0.08827416 1.0870212 0.03693571 -0.42760122 0.05653242 0.10408181
0.2878169 -0.17034097 -0.13279012 -0.34250563 0.5231569 0.20731862 -0.23694213 -0.12367075
-0.025880277 0.36472145 0.3947665 0.018074397 0.07052118 -0.035205893 0.12928388 -0.21451505
0.12134419 -0.27995718 -0.014025674 -0.42582288 -0.6908411 -0.37645477 -0.33531892 -0.4223017
-0.33136597 -0.23032293 0.09702922 0.2721612 -0.0014930469 0.012486595 -0.071410514 -0.15898919
-0.338933 -0.585038 0.5083571 0.76460683 0.3091258 -0.30429184 0.24361108 -0.15223011
0.6161433 -1.2990421 0.21722052 0.04190992 0.19411038 0.010364625 0.27299517 0.13508281
-0.20929322 -0.3479694 0.59048337 0.20324619 0.5874643 0.2019508 0.3362773 -0.19606976
-1.1582967 -0.11969223 -0.27514753 0.05167373 0.010909946 0.074002765 -0.07732091 0.11349577
0.23797356 -0.0951158 0.4099282 0.9525694 0.37362242 0.13021933 0.4658503 0.07267391

net.0.bias f4 [400]
00000000: 9d06 8bbb 8ad7 a1be 68d9 373e 44f5 8abe
00000010: e9cb 023e 44b0 913d 94c3 7b3e 381b dfbc
00000020: 8fb8 413e 5551 863e bd7e 1c3e ce39 aabe
00000030: 1b66 44bd 11b7 0e3e 435b 06be 39a6 d7bc
00000040: c93c 643e 8323 fd3b 2c15 d9bd f528 92be
00000050: 2cee 3d3d 1a80 f3be 653d 333e 6428 c9be
00000060: 62fe c03e 0089 aebe 842e a73e db4e 653e
00000070: 7f09 d4bd 6278 f43c 7eb3 23bc df28 91bd
00000080: 8f5e 64be 5c60 15be ca7c bcbd 7452 a4be
00000090: b0ec 723a 0cef 95be 2e1c 68bd 887e a1be
000000a0: ef2a 95be cd28 1dbe 2424 91bd 732b f9be
000000b0: 02ec 433e cb5c de3e d0fc 91be 3eb4 a7be
000000c0: 63f0 dcbe 0b07 9b3d d6d6 28bd 3ce4 373e
000000d0: d6ea abbe 7bc2 ae3d 1d00 80be 8090 11bf
000000e0: 436c 31bd 894a d83b 5e14 f3bc f415 78be
000000f0: 3c84 863e d391 ffbe 42ae 82bc f3aa 8e3e
00000100: 303b b73d dafd dcbe 667f c0bd 6a99 8e3e
00000110: a7d9 003e 8d20 ee3c 55ab 89be 67cf e7bc
00000120: 47db 42be 2c35 b0bd 5776 273c ced5 f4be
00000130: f35a d13e 2276 36bf 9b56 a33b 2a4a 143e
00000140: c457 3a3e 031f ba3d 3bbb c4bd 28e1 a43d
00000150: ea1c 99be ef0c 2d3d 38b2 b6be a571 863e
00000160: f65a 8d3e 730d fcbd 7f02 453e 994a 01bf
00000170: 043d 41bd d169 b63e eacc bcbe e233 c7be
00000180: b5fd 93be 6c9f 8c3e d5ff 183e 31d8 82be
00000190: 40c5 af3e 2d7f c13d cc47 85be 4143 f1be
000001a0: 1936 f13d 46ce 51be 8b80 59be 8c46 03bf
000001b0: a0e3 b1be 8991 8b3c 9e3f bbbe 2a69 a23e
000001c0: a005 58bb da75 9abe 852f 053c 7e93 633e
000001d0: c07b 04be 1765 5abe c47a f5be 0bda 9abd
000001e0: 82a9 babd 7058 a73d 39d2 a9be a8d5 dfbe
000001f0: 3cd5 75be 17f1 c4be c53e 3a3e 1087 c7bd
00000200: 219e 9f3e 0191 c3be 2cda 81be 3eb2 7f3e
00000210: 9679 32be 631d eb3d 9be8 14be df6c 083e
00000220: 78dc 5dbe c759 6cbe 5878 0dbe 9311 8e3e
00000230: f1a0 bb3d e4ce 90bd 6921 17bf f780 1bbe
00000240: e8e6 f2be 8bf7 9f3c 4754 e6be e5c7 cdbe
00000250: d2b7 0dbd 5799 b2be d320 33be b370 b9bd
00000260: 4d5c 53be 355b 943c e07f 3c3e 75a3 52be
00000270: e97d d8be 9e7e cebe 40a0 b2be c2c5 e9be
00000280: acc8 e4be 6649 08bf 5eb9 b63d 4761 03bf
00000290: 470c 433e b698 efbc d9b2 da3d 8393 36be
000002a0: 9b57 ea3d e391 9b3c acb1 efbe 1452 65be
000002b0: c925 b53e 8169 2abe 3100 aabe 2d26 f2bd
000002c0: a714 e2bd 1d4b 3c3d 4a2d 76be e4b4 09bc
000002d0: 436c fcbe 5d83 97be 2944 d93e 71de 87bd
000002e0: 6646 9e3e 0fe5 be3e 2d13 9cbe 2ba5 bc3e
000002f0: 3d92 953d 5987 aabe 77d2 c53e 9152 083e
00000300: 9ba3 e0be 62da a03e 2f83 cfbd 75bb 01be
00000310: 46a5 febd a792 01be 0d2e 023e c2cf 59be
00000320: cb6c 7b3e 8f72 a33e 3abc 55be 75da 0f3e
00000330: 1a1d 29bf d583 b1be 2490 3a3d 0396 d53d
00000340: cda5 7ebe ea39 26bd d23c f23c 7fe4 23bf
00000350: d889 743e 469b 143d c49c 0d3f 521d babe
00000360: 14b6 8cbd 58f0 8c3d d324 493e 56c2 54be
00000370: 57e8 3f3b 31b0 ed3c 0f1e d33c 6032 ddbc
00000380: e5b3 edbd c28c c0be fada 5e3e bf9b c1be
00000390: 1722 81be 12fa a43e e516 50be 09ee d13b
000003a0: 1579 c5be cdf7 b9bc fdde a53e 02bc c0be
000003b0: 46cd 1fbe e7c4 053d 074a c63d 37c7 04be
000003c0: 0e78 cfbe 7482 1e3e ce27 debd 5b59 ed3c
000003d0: 16d6 3dbd f87a 57be ba8a 89be b826 933d
000003e0: 81c4 76be 4402 a73e 7ead 6c3e 109c dd3d
000003f0: 24ce 4cbc dd06 8e3e ff2e 6ebd 2a55 c9be
-0.0042427317 -0.31609756 0.17954028 -0.27140248 0.12773098 0.07113698 0.24586326 -0.027234659
0.1891806 0.26233926 0.15282722 -0.33247226 -0.047948938 0.13937022 -0.13120751 -0.026324378
0.22288813 0.0077251806 -0.10599741 -0.28546873 0.046369717 -0.4755867 0.17503889 -0.39288628
0.3769408 -0.34088898 0.32652676 0.22393362 -0.10353374 0.02984256 -0.009991525 -0.07087874
-0.22301696 -0.1458754 -0.09203489 -0.32094157 0.00092668366 -0.2928394 -0.0566675 -0.31541848
-0.29134318 -0.15347596 -0.070869714 -0.48665962 0.19132999 0.4343017 -0.28513193 -0.327547
-0.4315215 0.07569703 -0.04122051 0.17958158 -0.33577603 0.08533188 -0.25000086 -0.56861115
-0.043316137 0.006600682 -0.029672798 -0.24227124 0.26272762 -0.49915943 -0.015952233 0.278648
0.08946836 -0.43162423 -0.09399299 0.2785142 0.12583028 0.029068256 -0.26888528 -0.02829714
-0.1902896 -0.08603892 0.0102210855 -0.4781937 0.408897 -0.71274006 0.0049846894 0.14481416
0.18197542 0.09087946 -0.09606024 0.08050758 -0.29904872 0.042248663 -0.35682845 0.2625858
0.2760846 -0.12307253 0.19239233 -0.5050445 -0.04717733 0.35627607 -0.36875087 -0.3890677
-0.289045 0.2746538 0.14941342 -0.25555566 0.34330177 0.09448085 -0.2603134 -0.47121623
0.117778964 -0.20488843 -0.21240442 -0.5127952 -0.34743977 0.01703717 -0.36571974 0.3172086
-0.0032962337 -0.3016804 0.008129005 0.22224233 -0.12937832 -0.21327625 -0.47945225 -0.0756112
-0.09114362 0.08171165 -0.331682 -0.43717694 -0.24007124 -0.38465187 0.18188007 -0.09742558
0.3117533 -0.38196567 -0.25361764 0.24970338 -0.17429194 0.114802144 -0.14541857 0.13322781
-0.21666133 -0.23081122 -0.13815439 0.27747783 0.091615565 -0.07070711 -0.59035355 -0.15185915
-0.47441792 0.019527217 -0.44986174 -0.4019157 -0.034599133 -0.34882614 -0.1749299 -0.09054699
-0.20640679 0.018109897 0.18408155 -0.20570166 -0.42283562 -0.40330976 -0.34887886 -0.4565869
-0.4468435 -0.53237 0.08922075 -0.5132031 0.19047652 -0.029247623 0.10678644 -0.17829709
0.11442491 0.018990463 -0.4681524 -0.22394592 0.3538039 -0.16641809 -0.3320327 -0.11823688
-0.11039095 0.04597007 -0.24040714 -0.008404944 -0.49301347 -0.2959241 0.42434815 -0.06634224
0.30913085 0.37284133 -0.3048338 0.36844763 0.07303283 -0.33306387 0.38637134 0.13312747
-0.4387482 0.31416613 -0.10132443 -0.12669165 -0.12433867 -0.126536 0.1271288 -0.2127066
0.2455322 0.3192334 -0.20872584 0.14048178 -0.6606003 -0.34670892 0.04554762 0.10429003
-0.24867935 -0.040582575 0.029570017 -0.6402053 0.23880708 0.036280893 0.5531733 -0.36350495
-0.06870666 0.068817794 0.19642954 -0.20777258 0.0029282772 0.029014679 0.025771169 -0.02700156
-0.11606578 -0.3760739 0.2176322 -0.37814137 -0.2522132 0.32222039 -0.20321234 0.00640655
-0.3856894 -0.022701168 0.3239669 -0.3764344 -0.1560565 0.032658484 0.09682088 -0.1296662
-0.40521282 0.15479451 -0.10847436 0.028973272 -0.046346746 -0.21043003 -0.26863652 0.071851194
-0.24098398 0.32618916 0.23113057 0.10820782 -0.01250032 0.2773961 -0.058150288 -0.39322788

net.2.weight f4 [300, 400]
00000000: 8146 90bd 7de3 5f3e c33a 45bf 3b17 7bbe
00000010: a481 aa3c 7c12 52be 2e69 4e3d 0772 b5be
00000020: be6f 113e 0f4d 16be 77ef a6be 2d8b 38bb
00000030: f94a 0c3e 1d98 75be 4ac2 ac3e 0350 c5bd
00000040: b698 98be b541 4c3e 821d 30be 49fb c7be
00000050: 3d9a 68bd 64d1 dabd 6c59 8bbe 5a89 9bbe
00000060: dca0 c7be 22f4 b03d de13 d7bd df68 debe
00000070: beec 82be f5ca 49be 64a4 b4bd 79b2 87be
00000080: aba4 8e3a 3df6 503e 908a 353e a3b7 a0bd
00000090: 1726 083e 0853 ecbd f1ea ffbd 2a16 b2bd
000000a0: 7327 ecbd c758 133e 40fe 88be a761 86be
000000b0: 6d8d 1abf 9cc3 5ebe 1f8d 5cbe 19e8 dcbe
000000c0: 88e0 5cbe d9be 94be a51e b6be 8328 163d
000000d0: ebb9 d5bb 7f9c 5b3e 274b 9d3d e414 873d
000000e0: 80ad fcbe 0651 c5be df4e 1dbf 0d02 82bd
000000f0: da79 133e be32 823d 6894 f3be 255b babe
00000100: 5f59 87bc ff02 9dbd 0221 77bf 5a93 64be
00000110: 0013 123e 62db d73d 8ee5 9bbe fb89 a7be
00000120: f511 69be 7a6f 49be 79e4 943c 0248 f4bb
00000130: d369 81be 1153 6c3d 8a16 4dbe 03a7 92be
00000140: 5362 ebbd 7e5b f0bc d8fc 14be 174a 3abe
00000150: 6c59 963e 7a9c edbe 7b2c c6be 27d1 b7bd
00000160: 6260 d1be 2703 11bf 7c52 9d3d b62a 503e
00000170: e058 dcbc b820 91be d392 33bf b0b0 c5bd
00000180: 98bf 1d3e 42cd 9abe 97fe f8bd a3dc be3d
00000190: 4b7d 03bf 363d 72be 0521 0ebe aef6 48be
000001a0: 807c b13d 82f0 d6be 07be cabd d8b8 913d
000001b0: 1f2f 083e 4149 4b3d 7da3 8b3e 4f3c 7d3d
000001c0: 9eaf 83be 7e7e 79be e3d6 ad3d 6e21 e4be
000001d0: 82bc 99bd a5c9 12bf 9a52 80be 36f4 613e
000001e0: 3f73 b63b a4f3 0abc 6741 cfbc 93f5 20be
000001f0: 7ecb 4b3e 2a6e 5f3e 0505 59bd cccf 31bf
00000200: 7aab e73d 7c94 16be 3e6f 80be 34fd 5cbf
00000210: 7283 b8bd 5113 143d 6225 98bd 46df 013e
00000220: 9a83 04be 898e 5dbe fa79 0abf 6a7c d4be
00000230: c8a0 bdbe 2105 d43d 64eb ebbc f4e0 99bd
00000240: d80d 92be 6b9b 0a3e dcbb bbbe 1ec8 8abe
00000250: 8149 d53d 8818 9e3e b602 0e3e 502e 0dbf
00000260: 48aa 40be fe7c 5f3e c40c 00bf bc41 1abf
00000270: 7539 f73c 9dc7 603d 7e8c 0fbe 7317 b73b
00000280: 3cf3 843e 20db 6abf 9737 70be 7c4d 2e3e
00000290: d19c 4bbd 9362 713e 6c1c 95be e778 083d
000002a0: aa3b 03be ec97 843e 2bff cebc d537 6ebe
000002b0: 1aba b3be ef5c a7bd e1f5 883a bcc3 37bf
000002c0: ac56 1abe 5a1e 16bf c0a3 b9bd 9b47 37be
000002d0: 6076 9f3d 219c 393d 6bec a5bc 3154 8ebe
000002e0: e4d2 08be 3b9d 2abf 414c 753a 3686 f73c
000002f0: 446d 613c a87f 3f3c e492 6bbe f90c c8be
00000300: 3c75 20bf 34d5 8fbc 4c40 6c3e 2699 f03b
00000310: 0401 0fbf 4403 c4be f4dc e6bd 037b c2be
00000320: 4a48 04bd 1c92 f43b f947 16bf 88e2 e4be
00000330: 3346 a8be 1f23 f4bd c9ea 4abe e903 8cbe
00000340: 58a9 38bd 3136 d0be d2d6 8ebe ee02 46be
00000350: 73b4 9c3e 268f 0abf 463a 0fbf c8ec 8b3e
00000360: ff22 76be af9c ff3d ab6b 02be 8fa8 b53d
00000370: 27e3 62be 59cf 10be d167 8ebe 3505 983d
00000380: 09ae 04be 6fe6 c8ba 6d8e a2bd 589a 42bd
00000390: 2091 debe 706c adbc 4e4c bdbe a013 13bf
000003a0: ef15 07bf d467 723d f094 8ebe 2582 2bbe
000003b0: 523b debd f6ce 283d d7de 043e 7be5 3bbe
000003c0: f7e5 e7bd 9505 ffbe 417e 6dbe da94 2dbf
000003d0: f277 08bf 0b0d 61be e18e eb3d 63d2 33be
000003e0: 6e87 69be 608c 82be 759a 2abe 9356 bfbe
000003f0: 8e5b 963e f3fb 14be d1b7 603d c1bb 9f3e
-0.070446976 0.21864124 -0.7704279 -0.2452058 0.02081377 -0.20514864 0.050393276 -0.35438558
0.14202783 -0.14677833 -0.32604572 -0.0028159127 0.13700475 -0.23983808 0.3374198 -0.09634402
-0.2980401 0.1994694 -0.17198756 -0.39058903 -0.056787718 -0.10684469 -0.2721666 -0.30378228
-0.38989913 0.08640315 -0.10501836 -0.43439385 -0.25571245 -0.19706328 -0.088204175 -0.2650335
0.0010882815 0.20406432 0.17728639 -0.07847526 0.1329578 -0.115392745 -0.124959834 -0.08695634
-0.11530962 0.14389335 -0.26756477 -0.26246378 -0.6037205 -0.21754307 -0.21538208 -0.43145826
-0.21570027 -0.29051855 -0.35570255 0.03665973 -0.0065224073 0.21446417 0.0768035 0.065957814
-0.4935112 -0.38538378 -0.6144847 -0.063480474 0.14401951 0.063573346 -0.47574162 -0.36397663
-0.016522108 -0.07666587 -0.9653474 -0.22321835 0.1426506 0.10539891 -0.30448574 -0.32722458
-0.22760756 -0.19671431 0.01817535 -0.007454873 -0.2527605 0.057696406 -0.20028129 -0.28643045
-0.11493363 -0.029340502 -0.14549577 -0.18192326 0.29365098 -0.46408445 -0.3870581 -0.089754395
-0.40893847 -0.56645435 0.07681748 0.20328793 -0.026897848 -0.28345275 -0.7014591 -0.09652841
0.15405118 -0.30234724 -0.12157934 0.09319427 -0.51363057 -0.23656163 -0.13879783 -0.19625351
0.086663246 -0.41980368 -0.09899526 0.07115334 0.13299225 0.049630407 0.2727317 0.061825093
-0.25719923 -0.24364659 0.08488252 -0.44556755 -0.07506658 -0.57338935 -0.2506302 0.22065815
0.0055679376 -0.00848094 -0.025299741 -0.15718679 0.19901845 0.21819368 -0.052983303 -0.694577
0.113120034 -0.1470508 -0.2508487 -0.8632386 -0.09009446 0.036151234 -0.07429005 0.12682828
-0.12940827 -0.21636404 -0.5409237 -0.4150117 -0.3703673 0.10352541 -0.028798766 -0.075136095
-0.28526187 0.1353585 -0.36666763 -0.27105802 0.104144104 0.3087809 0.13868222 -0.5514879
-0.18814957 0.21825024 -0.5001948 -0.6025655 0.030178765 0.054877866 -0.14018437 0.005587512
0.25966823 -0.9174061 -0.23458706 0.17021745 -0.0497101 0.2357276 -0.29123247 0.033318426
-0.12815729 0.25897157 -0.025268158 -0.23263486 -0.35102922 -0.081720226 0.0010449254 -0.7178304
-0.15072125 -0.5864006 -0.09064436 -0.17898409 0.0778625 0.04531491 -0.020254334 -0.27798608
-0.13361698 -0.66646165 0.0009357371 0.030215364 0.013758961 0.01168815 -0.23005253 -0.39072397
-0.62678885 -0.017557718 0.23071402 0.0073424755 -0.55860925 -0.3828374 -0.11272612 -0.37984475
-0.032295503 0.0074637067 -0.5870357 -0.4470408 -0.32866058 -0.11920761 -0.19816126 -0.27346733
-0.045083374 -0.40666345 -0.2789827 -0.19337055 0.30606422 -0.5412468 -0.55948293 0.27329087
-0.24036787 0.12481057 -0.12736385 0.088700406 -0.22156964 -0.14141597 -0.2781358 0.07422868
-0.12957014 -0.0015327464 -0.07937322 -0.047510475 -0.43470097 -0.021169871 -0.36972278 -0.5745182
-0.52767843 0.05918105 -0.27848005 -0.16748865 -0.10851158 0.041213 0.12975632 -0.18349259
-0.11323159 -0.49808946 -0.23192693 -0.67805254 -0.5330802 -0.21977632 0.11501861 -0.17560725
-0.22805569 -0.25497723 -0.16660483 -0.37370738 0.29366726 -0.14549236 0.0548628 0.31197932

net.2.bias f4 [300]
00000000: 519f 31bc 4791 39bd 297f 69be e7be 093e
00000010: 37ef f4bd 79b2 c83b 0736 b8bc 4772 9abd
00000020: 5c46 073d 809d 123e 1be6 99bd ff27 c6bc
00000030: 243f 6dbc a8b4 28be 3918 0abe e516 b9bd
00000040: 392b 31bd 0aab 39bc 8c1d 15be c145 9d3d
00000050: 5801 53bd 7b68 56bd 6ab6 62bc 0c65 373d
00000060: 2d69 1a3c bc81 acbd ff0c 38bc b86a 03be
00000070: 7b16 82bd e895 c83d bc0b 1ebe 902f e7bd
00000080: 0070 85bb f40c 86bd 2925 24bc bbf7 19bd
00000090: 6b59 2a3e 88d8 53bd 4561 8eba e0f7 41bd
000000a0: 4941 02bc 2f51 06be 3737 a7bd ab5a 833e
000000b0: c3e6 9cbc 6150 3bbe 9817 3ebd 2042 c9bd
000000c0: eb9b 41bc 385e b4bd 520f 82ba fbdb 4ebd
000000d0: ea49 4d3d eddf f6bd ae0f e73c e936 16be
000000e0: bea4 fbbc cf26 0fbd 2529 3ebd 9944 6fbd
000000f0: defb c0bd 22c6 c23d 3d4b a0bd e073 7e3e
00000100: fd51 4ebd e2f0 483c 8b88 d5bc ee43 753d
00000110: 66cc efbd 3e1c a9bd 3e27 0abd 486f 463d
00000120: 8af3 6bbd a59a c2bc 515e fb3a f292 f3bc
00000130: 750c b63c b919 073e 44a0 64bb c88a 57bd
00000140: 184b 123e c818 923b 1d31 adbc 0f5e 56bd
00000150: b991 b1bc 8c16 dcbd dc18 f03d e174 34bb
00000160: 966d 173e 2753 5ebd 862a aabb a8b7 61bd
00000170: fea7 41bd 042d 8c3e 39fb 5abd fe17 fd3c
00000180: bec5 c0bd a2b3 2bbd 1f34 7dbe 136d 65bc
00000190: d595 833c ed18 5cbe 7889 20be 6489 253a
000001a0: 79f1 723d de32 c2bd 9d26 63bd 612d 76bd
000001b0: 03f8 08bd 962f 713c cd5d fbbd 908d 50bd
000001c0: 6cae 1abd c80b 823d 3b5a 6cbd 8a84 67bc
000001d0: 4698 803d 64ea 7ebd 592c 793d b2aa 78bd
000001e0: 042f 8bbe e267 ff3d 1f25 a1bd 7fc1 4cbd
000001f0: 0486 a7bc b854 29bd db38 ffbd 546a 94bd
00000200: e98b 6abd ff28 1fbe 1cad 8ebc 0008 b73d
00000210: b664 b6bd 941c 913c 92b5 39bd e9ac f5bd
00000220: 42e0 5b3c 636f 2abd 3cba e13d f60d b33b
00000230: 7abd 643d 64ab d2bc 0858 1bbe e361 ebbd
00000240: 6b87 ac3b fdf4 a3bd 6152 00be 5690 ac3b
00000250: e6ef 173d 2104 4dbd 1d55 97bb 5e41 08bd
00000260: cb9b 8b3d e67e a5bd 239a 633e 10e8 b8bc
00000270: 51ed 4fbe 8f54 43bc d550 2cbd d556 dfbc
00000280: 348a 05be 92b1 8fbd 4df1 a33c f7f5 83bd
00000290: fdb3 88bd 1949 f63c 28d3 12bd 11f3 9cbd
000002a0: 2fe0 52bd 5c84 fabd 6796 a53d 337e a13d
000002b0: 4c33 6ebd e0c1 863d f4d1 38be dc22 363d
000002c0: 8654 433e 491a aebd d671 98be 96bc 873d
000002d0: 147c 51bd a182 debd ad4d 133e 1023 093b
000002e0: 7090 e93d 4efd 833b 488e 96bd 364b 833d
000002f0: ea07 02bd aa5c c2bd 17db bbbb 8939 293d
00000300: b351 f1bd cfa5 d5bc ad7e adbc cdf3 92bd
00000310: e251 663e db6d 32bd 0d10 babd d1da 62bd
00000320: 7e86 81bc a42a b1bd 35c4 bebc 3aad 94ba
00000330: 0762 35be f075 19be 37e4 68bd a1b9 1fbe
00000340: c956 f13c 2f0c 35be 1d39 cabd e801 b0bd
00000350: fdc7 993c 565a 01bd 6935 41bc fb31 97bb
00000360: 67d9 32be 21b2 64bc 204e 27bd e616 a7bd
00000370: 56cd e13d b679 273e 6f4c 0fbd feb7 cd3b
00000380: 2f57 bcbd fb18 8bbd 26a0 b7bd 00d0 8bbd
00000390: 15e4 4c3e ed86 c8bc 1796 523e 5698 aebd
000003a0: 5490 033e b660 5fbe 443d 4dbe 8387 11be
000003b0: dc6b f8bd f097 3ebd db64 00bd 5017 de3d
000003c0: e0ef 15be c05c 04be e134 583e e12b e4bd
000003d0: 76e3 59bd 40a4 b9bd 1be1 b53c 6407 413e
000003e0: 3600 74bd 6790 80bd d431 8cbd 14f7 c6bc
000003f0: c480 0c3b c9ae 8cbc b95e 853c dc03 80be
-0.010841207 -0.045304563 -0.22802414 0.1345173 -0.11959689 0.006124791 -0.0224867 -0.07541328
0.033026084 0.14317894 -0.07514592 -0.024188993 -0.014480386 -0.16475165 -0.13485803 -0.0903757
-0.04325411 -0.011332283 -0.14562052 0.0767932 -0.051514953 -0.052345734 -0.013837436 0.0447741
0.00942449 -0.08423182 -0.011233567 -0.12833679 -0.06351944 0.09794217 -0.15434164 -0.11288369
-0.0040721893 -0.06545439 -0.010018625 -0.03758977 0.16635673 -0.051720172 -0.0010862729 -0.047355533
-0.0079501355 -0.13116907 -0.08164828 0.25655112 -0.019153005 -0.18292381 -0.04640922 -0.098270655
-0.011816959 -0.08807033 -0.0009922779 -0.05050276 0.050119318 -0.12054429 0.028205719 -0.14669384
-0.030718204 -0.03494912 -0.046425957 -0.05841503 -0.0942304 0.09510447 -0.078268506 0.2484889
-0.05037116 0.012264462 -0.026066085 0.059879236 -0.11708908 -0.0825734 -0.03372883 0.04844597
-0.057605304 -0.02375538 0.0019177889 -0.029733155 0.022222737 0.13193406 -0.0034885565 -0.052622586
0.14286458 0.0044585206 -0.021141583 -0.052335795 -0.021675931 -0.10746488 0.117234915 -0.0027535486
0.14787897 -0.05427852 -0.0051930575 -0.05510679 -0.04727935 0.27378094 -0.05346224 0.03089523
-0.09412716 -0.041919358 -0.24726914 -0.014003056 0.016062656 -0.21493883 -0.1567744 0.0006314723
0.059312318 -0.094823584 -0.055456746 -0.06010187 -0.033439647 0.014720818 -0.122737505 -0.050916255
-0.037763998 0.06349903 -0.057703238 -0.014130721 0.06279044 -0.06223525 0.06083331 -0.060709663
-0.27184308 0.12470986 -0.078684084 -0.04998922 -0.020449646 -0.04134056 -0.12462016 -0.07246843
-0.057262335 -0.15542983 -0.01741653 0.08937073 -0.08905928 0.017713822 -0.045339175 -0.119958706
0.013420166 -0.041610133 0.110218495 0.0054643108 0.05584476 -0.025716491 -0.151703 -0.1149328
0.0052651665 -0.08005712 -0.12531425 0.0052662296 0.03709402 -0.050052766 -0.0046183006 -0.033265464
0.068168245 -0.080808446 0.22226767 -0.022571594 -0.20305373 -0.011922016 -0.042069275 -0.027263084
-0.13041002 -0.07016291 0.020012522 -0.064433984 -0.06674955 0.030064153 -0.035845906 -0.07663549
-0.05148333 -0.12232277 0.080853276 0.07885399 -0.05815439 0.065799475 -0.18048841 0.04446684
0.19075212 -0.08501107 -0.2977435 0.06627767 -0.05114372 -0.10864759 0.143851 0.002092544
0.114045024 0.004027999 -0.07351357 0.0641083 -0.03174583 -0.094903305 -0.0057329047 0.041314635
-0.11783161 -0.02608004 -0.021178568 -0.071754076 0.22492173 -0.043561798 -0.09085093 -0.05538446
-0.015811201 -0.08650711 -0.023286918 -0.001134313 -0.17713176 -0.14986396 -0.056858268 -0.15598156
0.029460328 -0.17680429 -0.09874175 -0.085941136 0.01877212 -0.03158029 -0.011792519 -0.0046141124
-0.17465745 -0.013958485 -0.04084599 -0.081586644 0.11025493 0.16355023 -0.034985002 0.006278037
-0.091963165 -0.06791874 -0.08966093 -0.06826782 0.20008881 -0.0244784 0.20565067 -0.085251495
0.12848026 -0.21814236 -0.20042902 -0.1421185 -0.121299475 -0.046531618 -0.031346183 0.1084429
-0.14642286 -0.12926006 0.21113922 -0.11141182 -0.05319544 -0.09064531 0.022202065 0.18850476
-0.059570514 -0.062775426 -0.068454415 -0.024287738 0.0021439055 -0.017173188 0.016280519 -0.25002944

net.4.weight f4 [4, 300]
00000000: 95c9 13bf 1f09 35bd 8225 883e 9f19 d33e
00000010: f112 a63e 74d3 343c 36d8 fbbc 51f6 78be
00000020: 3aee 30be 697f ae3e d605 843e af01 8ebe
00000030: 9400 89be e13e 9c3e 5962 09bf c69f c5bd
00000040: b499 ca3c afab 523e 0d13 98bd 74f1 023f
00000050: 8439 d53c e431 8cbe 60e8 ed3e c275 a0bb
00000060: 48cd 5ebd d18f 923e 3ab4 c43c bfe3 12bd
00000070: ebad e4bc 82b7 1ebe bf16 963e 6a7a d43d
00000080: f017 093c 7e6e a63e 5aeb 623d 7ca6 ddbc
00000090: 8e12 a53e d24f 0ebd 8079 37be 016a 23bd
000000a0: 14e3 11bd 0348 30be d192 febe 999c 013f
000000b0: 8c87 a1be aeab 01be 454a d0bc 3a95 f53e
000000c0: 3d3f 093d 0ae0 45be 1ebc 5a3d 7fb5 193e
000000d0: 3e0e f43e 0946 903d 16a5 6bbb 51e2 ef3d
000000e0: afe0 963c 415a c2be 7809 4cbd 9d0a e93c
000000f0: f405 d6be 04ee 243e 6d50 8abd 64e8 223e
00000100: 8419 40be da9a cebb ca9f d2bc b1f6 983e
00000110: 5ee1 0b3f 6740 b43c 7190 133d fc74 993e
00000120: 005e 633b e2f8 673e b936 c2bc 2a63 2dbd
00000130: 70a6 c0bb 856b 48be 37b9 3fbf 727e 4abb
00000140: 8d49 713e c90b b5bc 9507 25bc 500e 08bd
00000150: cddb efbb 03e7 77bd abfa 84bd 608a 6dbe
00000160: 970c b73e 527e 8a3c 5b45 4f3d e446 05bc
00000170: 85d0 89bb 8151 dabe 9fd6 183d 7a7f d7bc
00000180: af84 f83e bf7c b73e d55a ab3e e6ba cebd
00000190: a44c 4abd f2f1 c33d 4fa3 88be 2fbc 4e3b
000001a0: 9baf 63be 1e1f 053e 9767 3cbe b22d dd3c
000001b0: 5346 543d f48b 673e f6d9 09bd 676e 713d
000001c0: 2cdc 2f3d bb8f 6dbe 616c b6bc 9d60 64bd
000001d0: 3ed2 2b3e eca9 2ebd 3df6 b0be ce90 7e3e
000001e0: c3f6 ab3e 318b a43e b222 79be c8ea 133d
000001f0: fd4c 6a3d 0fc8 e23c 289c 763e 1636 8abe
00000200: 1e69 48bd 5b97 23be d13d 533d f2d6 71be
00000210: 4971 d2be 106e c9be ab38 243c 1a85 ce3d
00000220: c83a cabe 230e d4bb b3bf 8e3e 2e13 a7bc
00000230: 2854 8fbe 0089 1d3d b80c dabe 3834 b7bd
00000240: 1454 9bbe b75b 70be 1166 123f ec18 2e3c
00000250: 9410 a33e 02fe d43e f557 b2be 8a00 413c
00000260: cbf6 dfbd 84fb f9bc 41ee 3c3e 44af 883c
00000270: bbcf 21be 21f8 18bf c8b1 ce3c 7d5d 26bd
00000280: 5d0f f73e 8857 fc3e 870e 0abd 8529 443f
00000290: f22d c2be e4f6 3dbd 9d5d 67bd a935 2c3d
000002a0: 9938 723e d7a0 e3bd 5b1e 8f3e d724 a33e
000002b0: 84b5 223e 6894 4fbe 737f 5f3d 6132 053d
000002c0: 874e 953e b389 96bd e971 c2be 0c85 4b3f
000002d0: 221a b4bd 4607 38be 9fe7 04ba 3a96 53bc
000002e0: df07 a73e 4153 ddbb a1f0 983d 0104 c73e
000002f0: ac8a 21bd 5a5d 8bbd 5cec 56bd 77cc 9ebe
00000300: 0735 b0be 2893 e23c b6d1 613e 7e2c 2a3e
00000310: bcf6 9d3e 3515 ca3e 68ff 92bd 0226 333d
00000320: 8f48 c83e b44e a13d a74c 36bd b7ac ebbc
00000330: 4ecc c93e 8527 7b3d 1d46 683e d0fd 3bbe
00000340: 8fd3 27bd b8a7 04be 5204 9e3d d764 8b3e
00000350: 7c53 31bd 4332 2e3d 7ba6 dbbd 480d babc
00000360: 0bf2 a43e 6256 cdbe c3ce 20be 797b 46be
00000370: def0 88bb 31e0 f93e fc73 9a3d ed06 a0bc
00000380: 30fa 26be 46c3 713d ab83 7fbd d69e bdbc
00000390: dc2b 473e 5838 d73e 510b 6b3e f7b3 31be
000003a0: 0c90 99be a2a8 68be 29b4 123f 0b7b 133e
000003b0: 020e 82bd bb1d 62bd 84e3 e93e 7375 313c
000003c0: 757b 2c3e 5379 1ebe 5237 673e 0ae0 0dbf
000003d0: 5a6d 993e f135 ce3d 1905 17bd 3a9a a73e
000003e0: 6d48 c23c 4f70 a03c d86f dd3e 9242 8d3e
000003f0: ef59 cdbe 8c94 a1bc e503 27bd 33c2 143e
-0.57729465 -0.04419815 0.26591116 0.41230485 0.32436326 0.0110367425 -0.030742746 -0.24312712
-0.17278376 0.3408158 0.25785702 -0.2773566 -0.26758254 0.30516723 -0.5366569 -0.09649615
0.024731494 0.20573305 -0.07425509 0.5114968 0.026028402 -0.27381814 0.4646635 -0.0048968503
-0.05439499 0.28625348 0.02401172 -0.035861727 -0.027914962 -0.1549969 0.2931423 0.10374911
0.008367524 0.32506174 0.05540023 -0.027056925 0.3224072 -0.03474409 -0.17917442 -0.039896015
-0.03561695 -0.1721497 -0.49721387 0.50629574 -0.31548727 -0.12663147 -0.02542604 0.47965413
0.033507574 -0.19323745 0.05340206 0.15010642 0.47667116 0.07044608 -0.0035956553 0.11713088
0.018417684 -0.37959483 -0.049813718 0.028447444 -0.41801417 0.16106421 -0.06753621 0.15908962
-0.18759733 -0.006305081 -0.025710959 0.2987571 0.5464076 0.022003366 0.036026422 0.29972064
0.003469348 0.22653535 -0.023707734 -0.0423309 -0.005879216 -0.19572265 -0.7489199 -0.0030898121
0.23563214 -0.022100346 -0.0100726085 -0.033216774 -0.0073199035 -0.060523044 -0.064931236 -0.23197317
0.35751793 0.016905937 0.050603252 -0.008134577 -0.0042057657 -0.42640308 0.037314054 -0.026305903
0.4853873 0.3583736 0.33467737 -0.10094242 -0.049389496 0.09567632 -0.26687095 0.0031545272
-0.22234957 0.13000152 -0.18398891 0.026999328 0.05182488 0.22611982 -0.03365513 0.05894318
0.04293458 -0.2319936 -0.022268476 -0.0557562 0.1677942 -0.04264252 -0.34562865 0.24859926
0.33586702 0.32137445 -0.24329641 0.036112577 0.057202328 0.027683286 0.24083006 -0.2699439
-0.048928373 -0.15975706 0.051572625 -0.23617151 -0.41102055 -0.39341784 0.010023276 0.10083981
-0.39497972 -0.006471412 0.2788063 -0.020394888 -0.27993894 0.03846073 -0.4258783 -0.08945507
-0.30337584 -0.23472486 0.5718699 0.010626059 0.31848586 0.41600043 -0.3483273 0.011779914
-0.10935744 -0.03051544 0.18450262 0.016685136 -0.15801899 -0.59753615 0.025231257 -0.0406165
0.4825391 0.4928553 -0.03370526 0.76625854 -0.37925678 -0.04637803 -0.05648576 0.04204336
0.23654403 -0.11114662 0.27952847 0.31864044 0.15889555 -0.20271456 0.054564904 0.03251875
0.29161474 -0.07350483 -0.37977532 0.7949989 -0.08794047 -0.17971525 -0.00050699146 -0.012914235
0.32623193 -0.0067543094 0.07467771 0.38870242 -0.03943889 -0.06804915 -0.052471504 -0.3101537
-0.34415457 0.02765806 0.22052655 0.16618535 0.30852306 0.39469305 -0.07177621 0.04373742
0.39117858 0.078763396 -0.044506695 -0.02876888 0.39413685 0.061316986 0.22682996 -0.1835854
-0.040973242 -0.12954605 0.07715668 0.27225372 -0.043292508 0.042528402 -0.10725113 -0.022711411
0.32215914 -0.40104967 -0.15703873 -0.19383039 -0.004179104 0.48803857 0.075416535 -0.019534552
-0.16306376 0.059024118 -0.062381428 -0.023147028 0.19450325 0.42035174 0.22953536 -0.17353807
-0.29992712 -0.22720578 0.5730615 0.14402406 -0.06350328 -0.055204134 0.45681393 0.010831225
0.1684397 -0.15475969 0.22579697 -0.5541998 0.2996624 0.10068882 -0.036870096 0.32734853
0.023716176 0.019584803 0.43249393 0.27589852 -0.40107676 -0.019724153 -0.0407752 0.14527206

net.4.bias f4 [4]
00000000: b855 7abd 29b7 74be 850e a8bc ba9e 50bd
-0.061116904 -0.23897995 -0.020514736 -0.050932623
