lab6/dqn.pth (torch_old, 501612 bytes, 6 tensors)

net.0.weight f4 [400, 8]
-0.05890064 -0.40502805 0.026281664 -0.2473084 -0.119174615 -0.38411477 -0.62585235 -0.22976194
-0.23747058 -0.051709704 0.69501585 -0.17515555 0.015851486 -0.040772986 0.027424723 -0.32447925
0.09485142 -0.2927635 0.53651994 -0.2814811 -0.4134281 0.03256998 -0.5406241 0.19036601
-0.03645705 -0.41462114 -0.2615254 0.48668367 -0.05774974 0.05483401 -0.044796903 -0.21253058
0.043446727 0.03358713 -0.63755554 -0.3074548 0.042639617 -0.060389303 -0.0034313162 0.1529836
-0.47945374 0.2827868 0.010465972 0.19370547 -0.067966856 0.19039248 0.33144552 -0.019618016
0.28073445 -0.24222781 -0.10945792 -0.34332085 0.09776676 -0.17910294 0.0036015047 -0.7935562
-0.5365604 0.025548244 -0.40437317 0.16185957 -0.31923166 -0.49302605 -0.6293549 0.21598215
0.21906808 0.046886977 -0.6334309 0.1927349 -0.18313488 0.34418732 0.22381897 0.28016207
0.46954578 -0.09992614 -0.15701044 -0.043351024 0.12682046 0.04575562 -0.05649315 -0.26735517
0.15814695 0.05638946 -0.5060842 -0.35221782 0.21272802 0.12592046 0.26233447 0.14425594
0.04839179 -0.3889059 -0.3028119 0.21165355 0.3491359 0.1979206 -0.08570216 0.2758464
0.21175556 -0.40121353 0.11549401 -0.8616377 0.3754922 0.09275775 0.053003587 -0.10471517
-0.06704325 -0.70220727 -0.48620623 0.2092012 -0.3393117 0.08740939 -0.1018428 -0.07908162
-0.15714347 -0.8616029 0.48573372 0.20963612 0.6172423 -0.5520897 -0.18393746 -0.4923765
-0.060726605 -0.7923274 -0.031528197 -0.70806307 -0.85812676 -0.21240659 -0.15927885 -0.34811476
0.6881455 0.053094164 0.20117342 0.0951217 -0.31173262 0.11081511 0.1119622 -0.36043197
0.20832835 -0.962737 -0.32260713 -0.32062688 0.41152078 0.5099318 0.07810975 -0.25047746
-0.30271775 -0.0034555136 0.6127367 0.51983017 -0.70749784 -0.008702414 -0.39361373 -0.5159469
0.372121 -0.5424543 -0.1805537 -0.44413275 0.04999222 0.029188173 -0.17584504 -0.5497548
-0.29027155 0.22182404 -0.11605547 0.20197599 0.429821 0.50963503 0.5347598 -0.53705025
-0.21008322 -0.09521311 0.5832837 -0.52065796 0.340898 0.26789564 -0.075131044 -0.0038020469
0.23496246 0.31386146 0.023382489 -0.010613397 0.13893399 0.33078504 -0.27219447 -0.3381673
-0.40638244 0.12618606 0.33566797 0.8852747 0.031162191 -0.018881064 -0.20387737 0.53623104
0.12971495 -0.13088538 -0.116607614 -0.21904336 -0.43171248 0.061432492 0.32690525 -0.30273074
0.4718142 -0.333011 -0.32265392 0.3990235 -0.020844402 0.0009231909 -0.28342712 -0.18919393
-1.0991921 -1.0519735 -0.10934382 -0.560018 -0.23632312 -0.0843976 -0.02521311 -0.088059075
0.059711862 -0.26447237 0.7579797 -0.01691044 0.64876133 0.2795947 -0.14000717 -0.13695534
0.018197788 0.04595647 0.43371227 -0.17027117 0.5405002 -0.28236428 0.10199674 -0.32841858
0.9669816 -0.9532158 0.69002575 1.1390263 -0.24690922 0.06314049 0.21222606 0.13786437
0.20554225 -0.18193932 -0.19251598 -0.33657992 -0.32246643 -0.64905113 -0.24373479 -0.5438569
0.13058065 0.16900203 -0.13288344 -0.22530392 0.47041705 0.22892384 -0.1763979 0.19036372
00000000: cc41 71bd d65f cfbe a54c d73c 6a3e 7dbe
00000010: d211 f4bd b1aa c4be dc37 20bf b746 6bbe
00000020: 7d2b 73be 8ecd 53bd 8fec 313f fa5b 33be
00000030: fada 813c 9301 27bd d0a9 e03c 2522 a6be
00000040: 7641 c23d 19e5 95be 5f59 093f 4a1e 90be
00000050: d9ac d3be 1968 053d 5766 0abf 4fef 423e
00000060: fd53 15bd 3949 d4be a8e6 85be 9a2e f93e
00000070: fe8a 6cbd a099 603d f57c 37bd 9ea1 59be
00000080: 32f5 313d a992 093d d736 23bf b76a 9dbe
00000090: e1a6 2e3d c65a 77bd efdf 60bb bca7 1c3e
000000a0: f67a f5be 6ec9 903e 7879 2b3c ba5a 463e
000000b0: 3532 8bbd 3ff6 423e 3ab3 a93e f6b5 a0bc
000000c0: 6dbc 8f3e 910a 78be 792b e0bd c0c7 afbe
000000d0: f039 c83d c366 37be 3907 6c3b 8026 4bbf
000000e0: 065c 09bf 8d4a d13c 000a cfbe 84be 253e
000000f0: 5572 a3be e96d fcbe 671d 21bf 6d2a 5d3e
00000100: 6253 603e 8f0c 403d 8728 22bf 4c5c 453e
00000110: b687 3bbe 5239 b03e cd30 653e 6771 8f3e
00000120: 4e68 f03e 13a6 ccbd 58c7 20be d890 31bd
00000130: 39dd 013e 3f6a 3b3d 5c65 67bd c7e2 88be
00000140: 46f1 213e a2f8 663d bc8e 01bf e555 b4be
00000150: 60d5 593e 4bf1 003e b450 863e d4b7 133e
00000160: 7836 463d ad1e c7be 290a 9bbe b5bb 583e
00000170: f1c1 b23e b3ab 4a3e 9d84 afbd bd3b 8d3e
00000180: 73d6 583e dc6b cdbe 2088 ec3d 4a94 5cbf
00000190: 8340 c03e c6f7 bd3d 4a1a 593d e874 d6bd
000001a0: f94d 89bd dbc3 33bf 06f0 f8be d738 563e
000001b0: 43ba adbe b203 b33d f592 d0bd 8bf5 a1bd
000001c0: 38ea 20be 0292 5cbf 17b2 f83e daaa 563e
000001d0: 9703 1e3f c055 0dbf 1a5a 3cbe c618 fcbe
000001e0: 76bc 78bd f8d5 4abf b623 01bd 9f43 35bf
000001f0: 32ae 5bbf 1d81 59be ff19 23be 193c b2be
00000200: 4e2a 303f 4479 593d 6800 4e3e 2acf c23d
00000210: 6b9b 9fbe 08f3 e23d 704c e53d 8a8a b8be
00000220: 0754 553e ef75 76bf c32c a5be 3529 a4be
00000230: dab2 d23e e48a 023f 01f8 9f3d 953e 80be
00000240: d2fd 9abe e675 62bb 50dc 1c3f 9713 053f
00000250: 941e 35bf 9294 0ebc bd87 c9be 1915 04bf
00000260: a586 be3e 49de 0abf 12e3 38be 5e65 e3be
00000270: a4c4 4c3d 091c ef3c b910 34be bbbc 0cbf
00000280: 799e 94be d725 633e 7eae edbd cbd2 4e3e
00000290: 8011 dc3e 7177 023f 05e6 083f 207c 09bf
000002a0: 0e20 57be 17ff c2bd 1552 153f d749 05bf
000002b0: 2f8a ae3e 9e29 893e 4ede 99bd c32b 79bb
000002c0: 009a 703e 73b2 a03e a28c bf3c d0e3 2dbc
000002d0: b644 0e3e a85c a93e 135d 8bbe 4424 adbe
000002e0: 5c11 d0be eb36 013e acdc ab3e 5da1 623f
000002f0: da47 ff3c 76ac 9abc 3bc5 50be 7046 093f
00000300: ffd3 043e d106 06be f9cf eebd e74c 60be
00000310: 6b09 ddbe a3a0 7b3d 2060 a73e 86ff 9abe
00000320: a191 f13e 6b80 aabe e532 a5be cf4c cc3e
00000330: e1c1 aabc 4b02 723a 5c1d 91be 0ebc 41be
00000340: 54b2 8cbf 11a7 86bf a7ef dfbd 575d 0fbf
00000350: b0fe 71be a6d8 acbd b98b cebc 5158 b4bd
00000360: 6d94 743d ec68 87be f50a 423f c387 8abc
00000370: 3915 263f 0927 8f3e 0a5e 0fbe 053e 0cbe
00000380: 8713 953c da3c 3c3d 890f de3e 915b 2ebe
00000390: 395e 0a3f 0d92 90be abe3 d03d 7b26 a8be
000003a0: 1b8c 773f f305 74bf 87a5 303f 9dcb 913f
000003b0: c5d5 7cbe cd4f 813d ca51 593e 512c 0d3e
000003c0: ab79 523e 4d4e 3abe e922 45be 3454 acbe
000003d0: 521a a5be 3728 26bf 9d95 79be 353a 0bbf
000003e0: efb6 053e de0e 2d3e 9912 08be 12b6 66be
000003f0: 81da f03e 036b 6a3e a7a1 34be b5ee 423e

net.0.bias f4 [400]
0.33674082 0.059632983 0.15671983 0.5603356 0.11855212 -0.23346876 0.2774169 -0.23463397
-0.066267595 0.18476328 -0.6333156 -0.06509099 0.13760622 0.4045414 0.40790245 0.16825396
-0.39375505 -0.21243013 -0.45690054 0.24752031 -0.040970556 -0.13094267 0.041497227 -0.17613271
-0.13220304 0.52635014 -0.00069068326 -0.07439162 0.17250675 -0.0374685 0.07827565 0.011482853
-0.22390318 0.15244955 0.029553037 0.16907963 -0.39939532 0.29481333 0.31957287 0.046009343
0.2888844 -0.12631273 -0.33728155 -0.24555497 -0.025033124 -0.17552684 -0.20786987 0.37108287
0.3297406 -0.24491943 0.022315932 -0.38678756 -0.09756167 0.29048136 0.2594598 -0.0023821935
0.048297886 -0.24788955 0.019167932 -0.04667999 -0.35166663 0.30931646 -0.02587206 0.367183
-0.13781714 0.069575384 0.3746731 0.037049927 -0.4119665 -0.04300172 -0.17865649 -0.15348509
0.16117592 -0.5141817 -0.30816197 -0.1505874 -0.14437546 0.056782413 -0.19966872 -0.027167797
-0.3707824 0.1562069 -0.23593365 -0.22116038 -0.12159766 -0.050228763 0.29710272 -0.2722758
-0.0801777 -0.4421337 -0.3083786 0.056327872 0.09443752 -0.28186363 -0.23136832 0.055412665
-0.051639926 0.10095219 -0.10339549 -0.0063141063 -0.20797895 -0.250611 0.4096436 0.29669923
-0.07232888 0.13821065 -0.24151947 0.14226693 -0.2665894 -0.28124478 -0.39580134 -0.214307
-0.3073007 -0.32696143 0.16733539 -0.018098721 0.25605464 -0.076414816 -0.32784113 0.25303742
-0.36678195 -0.23555173 -0.3878786 -0.45299906 -0.01209021 -0.3581375 -0.061423976 0.4656066
-0.1675964 -0.18884812 -0.3033999 0.04384071 0.2552538 -0.23610954 0.13111356 -0.22667909
0.51058644 0.24946357 -0.46340364 -0.23944207 -0.23232993 -0.1410392 -0.35275644 -0.045669455
-0.25125745 -0.17525376 -0.04845063 0.28294533 -0.2255133 -0.23954664 -0.05409052 0.03148869
-0.04136508 0.30867246 0.06474171 -0.14398727 0.19297548 0.08986906 0.25498578 0.3952037
0.019784352 -0.45453745 -0.11168891 -0.29092646 0.39882255 -0.15716071 -0.41909012 0.10856134
-0.09078821 0.2118612 -0.22615324 -0.36283347 -0.33823416 0.00909517 -0.62558216 0.09824792
0.03275874 0.03869887 0.251136 -0.4636616 -0.121409856 0.072303385 -0.02217032 -0.16477865
-0.010073017 -0.39450887 0.05767044 0.07848788 -0.2809273 -0.4060053 -0.01711431 -0.21987212
-0.24432983 0.21430814 -0.09064006 -0.61512727 -0.10622551 0.5172613 -0.60045713 0.038310736
0.02914527 -0.42177042 -0.114122346 0.012229378 -0.1852883 0.02492486 -0.103416815 -0.3374071
-0.33306372 -0.27064535 0.16299939 0.10016453 0.0067207627 -0.112224214 0.06202842 0.36716652
-0.0859032 0.23153083 -0.0589823 -0.08568128 0.37663767 -0.12850574 -0.48500362 -0.33838725
-0.608003 -0.0057422766 -0.35435435 -0.1063789 -0.19671008 0.0042512855 -0.31539494 -0.24730684
-0.036732033 -0.5106567 0.30759016 0.22749658 -0.18083815 -0.26362923 0.23901144 -0.08245883
0.09663955 -0.05329118 0.19002521 -0.0679546 -0.06545533 -0.18551663 -0.43653548 -0.17598659
0.21910247 0.3055686 -0.011169293 -0.3073475 -0.12155499 -0.5489443 -0.21293938 -0.24517044
00000000: 4b69 ac3e b741 743d 2a7b 203e 2772 0f3f
00000010: 74cb f23d 6f12 6fbe 9709 8e3e e343 70be
00000020: 4eb7 87bd 9632 3d3e f920 22bf 6d4e 85bd
00000030: a5e8 0c3e 0d20 cf3e 97d8 d03e c44a 2c3e
00000040: 439a c9be 4987 59be deee e9be f775 7d3e
00000050: bed0 27bd d615 06be fff8 293d 225c 34be
00000060: 3c60 07be e2be 063f f80e 35ba a25a 98bd
00000070: 9ca5 303e 9278 19bd fc4e a03d 9422 3c3c
00000080: e046 65be bc1b 1c3e 3619 f23c 3623 2d3e
00000090: 8b7d ccbe c6f1 963e 0e9f a33e 4b74 3c3d
000000a0: a8e8 933e 2058 01be 2bb0 acbe c372 7bbe
000000b0: 4412 cdbc 4fbd 33be d7db 54be 93fe bd3e
000000c0: c3d3 a83e 29cc 7abe e7cf b63c 0509 c6be
000000d0: 6ace c7bd f9b9 943e ead7 843e 931e 1cbb
000000e0: 01d4 453d c2d6 7dbe 1106 9d3c 8433 3fbd
000000f0: a60d b4be ba5e 9e3e a4f1 d3bc 69ff bb3e
00000100: f01f 0dbe 8a7d 8e3d 27d5 bf3e aac1 173d
00000110: 46ed d2be 9222 30bd baf1 36be 322b 1dbe
00000120: 4d0b 253e 69a1 03bf 68c7 9dbe 9533 1abe
00000130: 29d7 13be ad94 683d f575 4cbe 008f debc
00000140: 31d7 bdbe b4f4 1f3e 9798 71be de77 62be
00000150: 3208 f9bd adbc 4dbd d91d 983e bc67 8bbe
00000160: 3534 a4bd 595f e2be cde3 9dbe 0eb8 663d
00000170: 7568 c13d 6e50 90be d1eb 6cbe 64f8 623d
00000180: 6384 53bd 06c0 ce3d 04c1 d3bd 90e6 cebb
00000190: 6ff8 54be 1650 80be cebc d13e f6e8 973e
000001a0: 2a21 94bd 1887 0d3e e150 77be 6cae 113e
000001b0: 687e 88be 51ff 8fbe 79a6 cabe 4b73 5bbe
000001c0: 8456 9dbe 7d67 a7be f859 2b3e c543 94bc
000001d0: 9819 833e 5f7f 9cbd cbda a7be 1f8e 813e
000001e0: d8ca bbbe 7934 71be 0698 c6be 7eef e7be
000001f0: 0416 46bc cc5d b7be b597 7bbd fd63 ee3e
00000200: 649e 2bbe 6761 41be 3b57 9bbe 5192 333d
00000210: a0b0 823e b3c6 71be a242 063e 901e 68be
00000220: cbb5 023f 6173 7f3e 3e43 edbe 4d30 75be
00000230: e6e7 6dbe 946c 10be 7e9c b4be e50f 3bbd
00000240: d1a4 80be b975 33be 2b74 46bd 36de 903e
00000250: f5ec 66be b74b 75be 058e 5dbd 49fa 003d
00000260: 6e6e 29bd 510a 9e3e 4d97 843d 6671 13be
00000270: 5d9b 453e 450d b83d 7f8d 823e 2458 ca3e
00000280: cb12 a23c 22b9 e8be 28bd e4bd 50f4 94be
00000290: 7832 cc3e bdee 20be fb92 d6be 6855 de3d
000002a0: 2bef b9bd 24f2 583e b794 67be 4fc5 b9be
000002b0: 072d adbe e803 153c 2726 20bf 3536 c93d
000002c0: 072e 063d b582 1e3d e694 803e 0e65 edbe
000002d0: bba5 f8bd cc13 943d 889e b5bc bcbb 28be
000002e0: 4c09 25bc 11fd c9be d737 6c3d 41be a03d
000002f0: b4d5 8fbe eddf cfbe 4f33 8cbc 2826 61be
00000300: 9931 7abe 9873 5b3e 7fa1 b9bd fb78 1dbf
00000310: c38c d9bd 3d6b 043f 8fb7 19bf b8eb 1c3d
00000320: 10c2 ee3c 4bf2 d7be fab8 e9bd bb5d 483c
00000330: 37bc 3dbe 382f cc3c 32cc d3bd a0c0 acbe
00000340: 5487 aabe 0792 8abe 50e9 263e 1023 cd3d
00000350: d839 dc3b cfd5 e5bd 8311 7e3d 40fd bb3e
00000360: 04ee afbd 6b16 6d3e 6d97 71bd ab79 afbd
00000370: a7d6 c03e 0297 03be 6552 f8be 1841 adbe
00000380: 16a6 1bbf b529 bcbb ef6d b5be 2edd d9bd
00000390: 5e6e 49be 5e4e 8b3b 727b a1be 013e 7dbe
000003a0: 5474 16bd 66ba 02bf 757c 9d3e ddf4 683e
000003b0: a32d 39be 69fa 86be 6abf 743e 2de0 a8bd
000003c0: f5ea c53d da47 5abd f895 423e c82b 8bbd
000003d0: 720d 86bd 12f8 3dbe 9481 dfbe d435 34be
000003e0: 665c 603e 7d73 9c3e 69ff 36bc a75c 9dbe
000003f0: d3f1 f8bd 9d87 0cbf c80c 5abe f60d 7bbe

net.2.weight f4 [300, 400]
0.13951036 -0.29161826 -0.072919875 -0.08655383 0.18771502 -0.22111744 0.1584635 -1.1906159
-0.10638407 0.09890956 0.11456211 0.06877928 0.1442471 -0.10059893 0.41603982 0.28362113
-0.025884824 0.30428538 -0.6774332 0.21118863 -0.19228065 0.025923299 0.14723831 0.2405739
-0.026747152 0.20916069 0.07588289 0.08583149 0.029419005 -0.03691251 0.102686636 0.20247793
0.16406992 0.11830492 0.34043297 0.12579952 -0.052830026 0.054373518 0.14741811 0.25397086
0.052944034 -0.4661109 0.24223545 0.08362024 -0.24802557 -0.031671688 0.26213974 0.06933348
0.056242883 -0.18594344 -0.2512963 0.35965246 -0.12703693 0.20154917 -0.32944852 -0.25293797
0.116726026 -0.17513976 -0.5157713 0.05253801 0.50603783 0.00922866 0.026008887 0.2660159
-0.045665905 0.19616811 -0.12646961 -0.22885494 -0.18496016 -0.01971607 0.25354362 0.3140941
-0.1932399 -0.25831327 -0.03974513 0.20175137 0.29750142 -0.31648785 -0.21127895 -0.15409099
-0.06123812 0.10797271 0.8944124 -0.090419315 -0.04007617 0.19983324 -0.08249973 -0.08009213
-0.07931485 0.2619607 0.3504834 -0.041336898 -0.21308447 -0.77492017 0.69413996 -0.12057643
0.017912451 0.06409059 0.09360633 -0.21940175 0.21207605 -0.020783827 0.1084767 0.11996
-0.023331849 0.018785166 0.019992305 0.07644839 0.30878833 0.20091003 -0.3191393 0.24377252
0.012432244 0.40915686 -0.07966867 0.061024047 0.010922296 -0.122616194 -0.46448722 0.25619602
-0.044492424 -0.2103811 0.5197021 -0.20899858 -0.16154118 0.49306402 -0.20807956 0.040147703
-0.44241247 -0.2110267 -0.078501746 0.4962265 -0.28012988 -0.004415241 0.02466432 -0.11148481
0.19046974 -0.023308279 0.013437065 0.14997877 -0.23486352 0.07282719 -0.33681485 0.25640404
-0.15424576 0.14804147 0.27189907 0.061151184 -0.4373701 -0.20511769 -0.07347115 -0.10329106
0.28163907 -0.046995252 -0.038079187 -0.27804333 0.05791834 -0.07352978 -0.19157523 -0.22059047
0.6578003 0.13722019 -0.09654189 0.08959442 -0.033493657 -0.28150356 -0.040169444 0.047716595
-0.22751206 0.145544 -0.34607574 0.24658038 -0.67592794 0.56808555 -0.4188489 0.16785488
-0.052017722 -0.30357015 0.1354338 -0.41463855 0.0055673025 -0.14602233 -0.06636359 0.06620565
0.49736717 -0.19041328 0.07994157 0.4835047 -0.065542005 -0.21816124 -0.37297076 -0.10747587
-0.4538629 -0.17825167 -0.12738778 -0.1469902 0.09995244 0.086866215 -0.24336357 -0.2691413
0.16191971 -0.17927189 0.1564716 0.30190378 -0.31269047 -0.0096673565 0.16068189 0.33530897
-0.15607944 -0.068555914 0.1401159 -0.09443499 0.18373363 0.21739183 0.022632206 0.0950079
-0.071765736 -0.038839594 -0.17354311 -0.5746378 0.20457138 -0.061346103 -0.24253604 -0.42001516
-0.44546154 -0.12324738 -0.25440857 -0.10598699 -0.38377556 -0.31533563 -0.40419897 -0.04657802
-0.6124729 -0.54137164 0.07786369 0.058515206 -0.37435818 0.07357955 -0.30744782 -0.1674554
0.18985836 -0.28710654 0.10128435 0.09464722 -0.09464622 0.49653128 -0.43928084 -0.03207988
0.39679 -0.18791558 0.15406016 0.05964412 0.15595506 0.22168493 0.08596929 -0.7357482
00000000: cedb 0e3e fd4e 95be 0457 95bd 2243 b1bd
00000010: 5e38 403e 9c6c 62be 4144 223e 1a66 98bf
00000020: e4df d9bd 1891 ca3d 8a9f ea3d 27dc 8c3d
00000030: 83b5 133e d006 cebd 2c03 d53e ca36 913e
00000040: 690c d4bc 4bcb 9b3e 436c 2dbf d541 583e
00000050: 38e5 44be 195d d43c a4c5 163e 0159 763e
00000060: d81c dbbc 382e 563e 7d68 9b3d 6cc8 af3d
00000070: 2000 f13c 9231 17bd 5f4d d23d 6056 4f3e
00000080: f201 283e da49 f23d 3b4d ae3e 97d1 003e
00000090: 4c64 58bd c4b6 5e3d c6f4 163e 7808 823e
000000a0: d8db 583d 16a6 eebe 920c 783e 1741 ab3d
000000b0: 6afa 7dbe 2cba 01bd 2e37 863e b6fe 8d3d
000000c0: f05e 663d f567 3ebe e9a9 80be 5e24 b83e
000000d0: f815 02be e862 4e3e 7aad a8be 1681 81be
000000e0: 0e0e ef3d d657 33be 9709 04bf 1932 573d
000000f0: b28b 013f ce33 173c 9710 d53c 3c33 883e
00000100: 2c0c 3bbd 4be0 483e 4081 01be f358 6abe
00000110: 3266 3dbe 9883 a1bc 78d0 813e f1d0 a03e
00000120: aee0 45be a341 84be cacb 22bd e997 4e3e
00000130: 1b52 983e b20a a2be 8259 58be 07ca 1dbe
00000140: d3d4 7abd cc20 dd3d 36f8 643f c32d b9bd
00000150: e926 24bd 16a1 4c3e 9ef5 a8bd 5807 a4bd
00000160: d36f a2bd b61f 863e 8f72 b33e e150 29bd
00000170: d132 5abe 2b61 46bf 28b3 313f c6f0 f6bd
00000180: 22bd 923c ed41 833d adb4 bf3d daaa 60be
00000190: 772a 593e d842 aabc 0829 de3d 97ad f53d
000001a0: 6f22 bfbc 59e3 993c e7c6 a33c f990 9c3d
000001b0: 8119 9e3e 5cbb 4d3e 3a66 a3be 819f 793e
000001c0: 9cb0 4b3c 027d d13e 5429 a3bd 5af4 793d
000001d0: 6ef3 323c 331e fbbd 45d1 edbe 202c 833e
000001e0: b03d 36bd 256e 57be 320b 053f b903 56be
000001f0: 0d6b 25be e372 fc3e cf12 55be eb71 243d
00000200: e383 e2be 6217 58be 86c5 a0bd 6611 fe3e
00000210: 2f6d 8fbe baad 90bb d40c ca3c 2652 e4bd
00000220: 800a 433e 01f1 bebc 2327 5c3c 0994 193e
00000230: 1080 70be 6c26 953d ff72 acbe 6447 833e
00000240: 9af2 1dbe 2f98 173e 5b36 8b3e aa79 7a3d
00000250: f9ee dfbe 5f0a 52be 0b78 96bd 438a d3bd
00000260: ff32 903e 187e 40bd ecf8 1bbd b25b 8ebe
00000270: c83b 6d3d c896 96bd 4c2c 44be 78e2 61be
00000280: 9a65 283f 7383 0c3e c1b7 c5bd 477d b73d
00000290: a530 09bd 3c21 90be b788 24bd 7a72 433d
000002a0: ecf8 68be 7d09 153e d730 b1be 917f 7c3e
000002b0: 9d09 2dbf 0e6e 113f 5d73 d6be 26e2 2b3e
000002c0: 8910 55bd 8c6d 9bbe 28af 0a3e 814b d4be
000002d0: eb6d b63b e186 15be a2e9 87bd d496 873d
000002e0: e9a6 fe3e b3fb 42be 68b8 a33d ee8d f73e
000002f0: e33a 86bd a965 5fbe 06f6 bebe 4f1c dcbd
00000300: b860 e8be 9b87 36be f171 02be 9984 16be
00000310: ddb3 cc3d eae6 b13d 4d34 79be e3cc 89be
00000320: 48ce 253e 0d93 37be 173a 203e 2293 9a3e
00000330: f718 a0be d563 1ebc cb89 243e 9ead ab3e
00000340: 4ad3 1fbe 0b67 8cbd 8b7a 0f3e 2267 c1bd
00000350: ab24 3c3e f79b 5e3e 2d67 b93c 8093 c23d
00000360: eaf9 92bd 4416 1fbd 49b5 31be 761b 13bf
00000370: 297b 513e 0d46 7bbd 5e5b 78be 3a0c d7be
00000380: 8913 e4be 1f69 fcbd d741 82be b50f d9bd
00000390: 3b7e c4be ac73 a1be 2bf3 cebe 98c8 3ebd
000003a0: 06cb 1cbf 5597 0abf 0077 9f3d a4ad 6f3d
000003b0: e0ab bfbe e0b0 963d cd69 9dbe 6e79 2bbe
000003c0: 3b6a 423e a1ff 92be 2b6e cf3d 67d6 c13d
000003d0: e1d5 c1bd 5939 fe3e 6be9 e0be 3166 03bd
000003e0: 0f28 cb3e f16c 40be f2c1 1d3e 654d 743d
000003f0: afb2 1f3e 6001 633e ab10 b03d fe59 3cbf

net.2.bias f4 [300]
-0.045564726 -0.13783662 -0.06770035 -0.055951923 0.087783195 0.006143533 0.05946466 -0.025822554
-0.018510919 -0.19569585 -0.049186397 -0.033821177 -0.02128495 0.007137603 0.14782323 -0.15766673
-0.080519095 -0.054653257 -0.0857704 0.12561518 -0.055135414 -0.10482029 -0.1450875 0.09120203
-0.0556037 0.07482742 -0.025779847 0.1111139 -0.050973758 0.2724917 -0.21757017 0.029518237
-0.05810834 0.005799575 0.17128664 0.19650124 -0.023105664 -0.02205019 0.024653858 0.024598563
-0.1354762 0.083087124 -0.0465455 -0.04082738 -0.023034165 0.034392495 0.13417287 -0.08590175
-0.13119595 0.06444521 -0.16912985 -0.10789001 -0.10941915 -0.12164027 -0.09575996 -0.0034084413
-0.0013705263 -0.16496845 -0.021886976 -0.005874634 -0.08471259 0.035520464 -0.033054613 -0.108239725
-0.09096764 -0.1995363 0.038901057 -0.11157686 -0.10665994 0.021769106 -0.15967539 -0.10524341
0.12249181 0.017938327 -0.11994426 -0.1889565 0.013082721 -0.074663535 -0.07332712 -0.009416281
0.025248794 0.034050517 -0.07875663 -0.05486134 0.035494186 0.0049362313 -0.04695283 0.03692021
0.0105530815 -0.10041504 0.00446137 -0.09089705 -0.14353538 -0.0022005003 -0.11838812 -0.102949664
-0.14539877 -0.036095295 -0.08485275 -0.15440165 -0.10219475 -0.069404125 -0.262435 -0.033518504
-0.1831586 -0.06229791 -0.11221426 0.002073691 -0.20097727 0.047246855 -0.03584553 -0.029102657
0.10966094 0.10273821 0.09840834 -0.067141615 -0.007488335 -0.061228115 -0.007942796 -0.00619411
-0.041557107 0.0030993656 0.047195353 -0.021615447 -0.13447446 0.113191396 0.2400546 -0.11601192
0.03431426 0.104240045 -0.1307113 0.010765344 0.022140168 -0.088965386 0.08791675 -0.097138144
-0.13474937 0.012336857 -0.06769244 -0.040656675 -0.17934696 -0.06415556 -0.047278218 -0.036331862
-0.11810842 0.08431626 -0.037711255 -0.041516084 0.21342401 -0.04605758 -0.03109241 -0.12064616
0.09450438 -0.15341607 -0.014240853 0.0017456341 0.108970836 -0.15237716 -0.040687133 -0.17483245
0.022943 -0.29679966 -0.08312042 0.0024818745 -0.022828702 -0.09549702 -0.030406976 -0.03743936
-0.13900508 -0.00085605547 -0.009621765 0.024700636 0.009534036 -0.017141825 -0.02906564 -0.05397519
-0.020632673 -0.008159554 -0.057692986 -0.27940017 -0.06496188 -0.06511178 -0.05298463 0.16205552
-0.030294135 -0.14350803 -0.04195628 -0.10598784 0.059251737 -0.013264249 -0.13607673 -0.059776302
0.09687203 -0.0408643 -0.015174675 -0.04832026 -0.0668459 0.16840953 -0.061156306 0.025526674
-0.11366957 -0.06208632 -0.05419275 -0.15586151 0.045443665 -0.006248107 -0.08448902 -0.09085834
-0.13093795 -0.036790475 -0.025863 -0.022429593 0.0140598295 0.08837584 -0.07655432 -0.24594663
-0.12446405 -0.028720353 -0.096593104 -0.06840232 -0.11807097 -0.1269392 -0.08923181 -0.073341064
0.03139716 -0.018700697 0.21691537 -0.07999626 0.025384435 -0.09508237 -0.036138613 -0.02617352
-0.051583406 0.017322145 0.016924465 0.15683584 -0.14678591 -0.18102987 0.10365101 -0.10172054
-0.0042941226 -0.02599862 0.12638691 -0.08330282 -0.09171337 -0.019111974 -0.11971623 0.087510094
0.27115887 -0.14909816 -0.059946638 0.038706943 -0.075143635 -0.13222966 0.04704638 -0.08763749
00000000: 14a2 3abd 0b25 0dbe 7ba6 8abd d82d 65bd
00000010: adc7 b33d b14f c93b 3791 733d d289 d3bc
00000020: 36a4 97bc 7e64 48be ad77 49bd 1388 0abd
00000030: c75d aebc 8ee2 e93b f95e 173e 6373 21be
00000040: 32e7 a4bd 18dc 5fbd 64a8 afbd 44a1 003e
00000050: acd5 61bd 05ac d6bd d191 14be 21c8 ba3d
00000060: b5c0 63bd 1e3f 993d 4230 d3bc af8f e33d
00000070: dcc9 50bd 0884 8b3e b7ca 5ebe 3bd0 f13c
00000080: 0303 6ebd 5c0a be3b c465 2f3e 9f37 493e
00000090: 1748 bdbc 9aa2 b4bc e3f6 c93c ed82 c93c
000000a0: 46ba 0abe 9529 aa3d 7fa6 3ebd 9c3a 27bd
000000b0: 25b2 bcbc 25df 0c3d 9d64 093e 42ed afbd
000000c0: 3b58 06be dafb 833d 6030 2dbe 70f5 dcbd
000000d0: 2617 e0bd 891e f9bd cc1d c4bd 2860 5fbb
000000e0: 3ba3 b3ba 7ded 28be 514c b3bc 0080 c0bb
000000f0: cb7d adbd e87d 113d 4664 07bd caac ddbd
00000100: 3e4d babd 3e53 4cbe b756 1f3d 6982 e4bd
00000110: 8770 dabd 2055 b23c f281 23be db89 d7bd
00000120: fcdc fa3d 66f3 923c 56a5 f5bd d07d 41be
00000130: e958 563c 32e9 98bd 872c 96bd bf46 1abc
00000140: 8fd6 ce3c 8e78 0b3d 284b a1bd 49b6 60bd
00000150: 5a62 113d 1cc0 a13b 9c51 40bd a539 173d
00000160: d5e6 2c3c 67a6 cdbd af30 923b 3c28 babd
00000170: f0fa 12be 4536 10bb 7875 f2bd 46d7 d2bd
00000180: 6ae3 14be a9d8 13bd 47c7 adbd 771b 1ebe
00000190: 7b4b d1bd c023 8ebd e15d 86be b34a 09bd
000001a0: ee8d 3bbe 182c 7fbd 97d0 e5bd c3e6 073b
000001b0: fccc 4dbe eb85 413d c3d2 12bd b268 eebc
000001c0: ea95 e03d 6968 d23d 508a c93d 8b81 89bd
000001d0: b560 f5bb 55ca 7abd 8022 02bc f6f7 cabb
000001e0: c937 2abd ba1e 4b3b ea4f 413d e112 b1bc
000001f0: acb3 09be e4d0 e73d e0d0 753e a897 edbd
00000200: 1c8d 0c3d ce7b d53d 2fd9 05be 2061 303c
00000210: 4c5f b53c 7c33 b6bd b20d b43d 5df0 c6bd
00000220: bdfb 09be 8720 4a3c 55a2 8abd 9d87 26bd
00000230: bba6 37be fe63 83bd cea6 41bd b8d0 14bd
00000240: d4e2 f1bd 01ae ac3d 1e77 1abd c50c 2abd
00000250: d38b 5a3e dfa6 3cbd 83b5 febc 5515 f7bd
00000260: 838b c13d 1a19 1dbe 7752 69bc c3cd e43a
00000270: 1a2c df3d c208 1cbe 8da7 26bd 4707 33be
00000280: f5f2 bb3c 20f6 97be 0a3b aabd f2a6 223b
00000290: 4203 bbbc f193 c3bd 0d18 f9bc 045a 19bd
000002a0: 5957 0ebe e968 60ba 9ca4 1dbc fd58 ca3c
000002b0: a534 1c3c 036d 8cbc 111b eebc 1715 5dbd
000002c0: da05 a9bc a6af 05bc 7b4f 6cbd 8a0d 8fbe
000002d0: bc0a 85bd 5359 85bd 6906 59bd e2f1 253e
000002e0: 682b f8bc c5f3 12be 59da 2bbd 2710 d9bd
000002f0: f3b1 723d 4b52 59bc b357 0bbe ffd7 74bd
00000300: d864 c63d 5361 27bd 339f 78bc 77eb 45bd
00000310: 81e6 88bd 8c73 2c3e 097f 7abd 511d d13c
00000320: 97cb e8bd 3a4e 7ebd 38f9 5dbd 299a 1fbe
00000330: 2323 3a3d ecbc ccbb 9408 adbd f013 babd
00000340: 9914 06be 9cb1 16bd a4de d3bc 44be b7bc
00000350: 335b 663c 64fe b43d 83c8 9cbd 6fd9 7bbe
00000360: 02e7 febd f246 ebbc 9bd2 c5bd 8416 8cbd
00000370: 31cf f1bd 5afc 01be 2bbf b6bd d733 96bd
00000380: 4f9a 003d 3432 99bc 101f 5e3e 14d5 a3bd
00000390: 05f3 cf3c 8cba c2bd 1506 14bd da69 d6bc
000003a0: 1f49 53bd 2ce7 8d3c 2da5 8a3c 9399 203e
000003b0: 0c4f 16be e55f 39be fb46 d43d dc52 d0bd
000003c0: b6b5 8cbb 0ffb d4bc 926b 013e ab9a aabd
000003d0: 38d4 bbbd b790 9cbc c82d f5bd 7e38 b33d
000003e0: 56d5 8a3e 30ad 18be 9b8a 75bd 2c8b 1e3d
000003f0: e8e4 99bd 3667 07be b4b3 403d 497b b3bd

net.4.weight f4 [4, 300]
0.2612388 0.14680669 0.017446127 -0.5193735 0.10689918 0.019973706 0.39683783 -0.07785264
-0.016301721 0.23123245 -0.2655186 -0.01800596 -0.012911557 0.27674338 0.2973172 -0.092854396
-0.061223682 -0.13370167 0.0452031 -0.3104889 0.011541629 -0.1513577 -0.17097929 0.2342585
0.040703118 -0.5428987 -0.13055491 0.30553514 -0.28808194 0.3106355 0.15340804 -0.00603529
-0.0485973 -0.12907188 0.15853643 0.34008446 0.38574976 0.02888939 -0.16919754 0.14619413
-0.22836205 -0.10816273 -0.4519557 -0.18270646 -0.05115604 0.15198421 -0.3351689 -0.13035008
-0.073751435 0.16338058 -0.016795045 -0.058419432 -0.18725394 -0.16351706 0.13934682 -0.008559745
-0.016883763 -0.18506648 0.08161096 0.012894391 0.4148986 0.39175084 -0.1864596 -0.26123437
0.47739363 0.1605818 0.4125214 -0.26354793 0.010302367 0.03367591 0.10017486 -0.23088288
0.34662673 -0.061731283 -0.2395927 0.015368012 -0.2689384 -0.22456513 0.034012098 -0.4873886
-0.5014986 -0.29100275 0.7681557 -0.30409688 0.38333628 0.0020797583 -0.2626438 0.25991148
0.61797684 -0.029580317 0.31093642 -0.054633506 0.43599918 0.031476166 0.5142144 -0.10185138
-0.20051731 0.3973235 0.040194213 -0.12190702 -0.091589555 0.15167433 -0.07855975 -0.34172633
-0.3651581 -0.0030167277 -0.009429105 0.04101612 -0.15671566 0.1550996 -0.009394906 -0.025565073
0.042512268 0.4024055 -0.48060438 0.017581915 0.6677778 0.04052892 0.030946476 -0.034669675
0.48199633 -0.005138968 0.14641424 -0.11463189 -0.115458496 0.43823415 0.19326575 -0.3997173
0.55878615 -0.48937687 -0.3681645 -0.032168966 0.2951737 0.021937696 0.24438992 0.23740236
0.36751595 0.25084475 -0.086564384 0.022362918 0.35339633 -0.02011997 -0.044903025 -0.15256439
0.11740122 -0.2202368 0.13723592 0.044035632 0.28754354 -0.04478738 -0.059674755 -0.19035298
-0.2895599 0.2443757 0.3632011 -0.016844004 -0.19598167 -0.35667318 -0.22553791 -0.065458775
0.026292885 0.56050265 -0.0143385045 0.026303748 -0.01986723 -0.02720823 -0.01035532 0.29957852
-0.0874482 -0.03336608 -0.16978477 0.21620551 -0.030631686 0.05541653 -0.0020457418 -0.2578152
-0.092435926 0.020261558 0.0011782879 0.42226675 -0.017793654 0.81864005 0.55384207 0.19381855
0.040055227 0.30685714 -0.13699992 0.6262645 0.13515924 -0.012315377 -0.3433685 0.008299419
0.29094037 0.0006991832 0.331497 0.3120206 0.36920384 0.298959 -0.024314664 0.0424036
0.015780704 0.55734414 -0.049880832 -0.21158053 -0.14056943 -0.118454814 -0.014457245 -0.71521455
0.3036793 0.036752008 -0.17361477 -0.2476573 0.40942198 0.07707156 -0.1319198 -0.28196433
0.8469475 -0.056058582 0.053483468 -0.0054990016 -0.32440642 0.33886507 -0.19815078 -0.36475027
-0.024041658 -0.00715173 0.22165321 -0.10080695 -0.1945965 -0.07047735 -0.20487593 0.018258128
-0.014331751 -0.0015041397 -0.30136457 0.3185723 0.2542216 0.50558287 -0.28988022 -0.018023489
-0.12991744 0.0034563607 0.17524584 0.45502207 -0.19296661 -0.16456825 0.09132499 0.26947376
0.28307378 0.2117186 0.030962229 -0.2690097 0.22712776 0.46749932 -0.031348363 0.0026673153
00000000: 18c1 853e 7e54 163e 2eeb 8e3c a9f5 04bf
00000010: f5ed da3d e69f a33c 542e cb3e 3471 9fbd
00000020: 308b 85bc 33c8 6c3e 0ef2 87be 3c81 93bc
00000030: ff8a 53bc 4fb1 8d3e f639 983e 722a bebd
00000040: afc5 7abd 17e9 08be e326 393d 67f8 9ebe
00000050: 1a19 3d3c 83fd 1abe 3215 2fbe 76e1 6f3e
00000060: 50b8 263d 69fb 0abf 30b0 05be 1a6f 9c3e
00000070: 7a7f 93be 9e0b 9f3e ff16 1d3e afc3 c5bb
00000080: f60d 47bd 6b2b 04be 6057 223e 8d1f ae3e
00000090: fe80 c53e 71a9 ec3c 1f42 2dbe eab3 153e
000000a0: bed7 69be 6c84 ddbd bd66 e7be 6717 3bbe
000000b0: ff88 51bd c0a1 1b3e 429b abbe 7e7a 05be
000000c0: fe0a 97bd 3d4d 273e c395 89bc 3749 6fbd
000000d0: 7fbf 3fbe 0471 27be efb0 0e3e 2c3e 0cbc
000000e0: d14f 8abc 1182 3dbe a623 a73d ff42 533c
000000f0: 976d d43e 9193 c83e 44ef 3ebe 83c0 85be
00000100: f06c f43e 8e6f 243e 0136 d33e c1ef 86be
00000110: 42cb 283c c0ef 093d 7a28 cd3d 906c 6cbe
00000120: 0f79 b13e f1d9 7cbd ca57 75be 1dca 7b3c
00000130: 4bb2 89be 67f4 65be 4550 0b3d 008b f9be
00000140: 3662 00bf 50fe 94be daa5 443f 96b2 9bbe
00000150: a744 c43e 8e4c 083b 4079 86be 1e13 853e
00000160: bb33 1e3f 6c52 f2bc 0f33 9f3e 62c7 5fbd
00000170: 493b df3e 27ed 003d 8ea3 033f 7597 d0bd
00000180: 6954 4dbe fc6d cb3e b0a2 243d 63aa f9bd
00000190: 4e93 bbbd 8450 1b3e efe3 a0bd c1f6 aebe
000001a0: 01f6 babe 4bb4 45bb 887c 1abc 8500 283d
000001b0: 127a 20be 6ed2 1e3e 18ed 19bc d86d d1bc
000001c0: 5821 2e3d 1808 ce3e c711 f6be f307 903c
000001d0: 7cf3 2a3f a701 263d 7783 fd3c ca01 0ebd
000001e0: 39c8 f63e ca64 a8bb 9ded 153e 20c4 eabd
000001f0: 8175 ecbd 3a60 e03e 75e7 453e bfa7 ccbe
00000200: 9c0c 0f3f 9b8f fabe 0f80 bcbe 9bc3 03bd
00000210: 0221 973e afb6 b33c 5a41 7a3e 9b19 733e
00000220: 0d2b bc3e b96e 803e ab48 b1bd 7032 b73c
00000230: 5df0 b43e a3d2 a4bc 3cec 37bd d739 1cbe
00000240: 0d70 f03d c185 61be 9387 0c3e b55e 343d
00000250: e838 933e f972 37bd 846d 74bd e4eb 42be
00000260: 3241 94be a03d 7a3e 7ff5 b93e 70fc 89bc
00000270: 6baf 48be de9d b6be 69f3 66be 400f 86bd
00000280: 2d64 d73c 1a7d 0f3f 0cec 6abc f57a d73c
00000290: 9ac0 a2bc cbe3 debc 5ca9 29bc 5b62 993e
000002a0: 0b18 b3bd dfaa 08bd 0fdc 2dbe fa64 5d3e
000002b0: 4def fabc 72fc 623d da11 06bb 5b00 84be
000002c0: 0c4f bdbd 91fb a53c c870 9a3a 5933 d83e
000002d0: ffc3 91bc 6592 513f 98c8 0d3f 5f78 463e
000002e0: f310 243d 611c 9d3e b549 0cbe df52 203f
000002f0: 2f67 0a3e 6fc6 49bc ffcd afbe 49fa 073c
00000300: 23f6 943e 6449 373a fab9 a93e 2ac1 9f3e
00000310: 4908 bd3e 2711 993e 8c2f c7bc 66af 2d3d
00000320: 8946 813c 1bae 0e3f d84f 4cbd 91a8 58be
00000330: 6ff1 0fbe 7098 f2bd 15de 6cbc 4d18 37bf
00000340: da7b 9b3e 4689 163d 12c8 31be e099 7dbe
00000350: c29f d13e b2d7 9d3d fc15 07be a15d 90be
00000360: 8dd1 583f af9d 65bd 7b11 5b3d f830 b4bb
00000370: 9918 a6be b97f ad3e 0ae8 4abe 8cc0 babe
00000380: 03f3 c4bc 0f59 eabb 0ff9 623e e073 cebd
00000390: 4e44 47be 6e56 90bd ffca 51be 1292 953c
000003a0: b8cf 6abc 8e26 c5ba 754c 9abe e91b a33e
000003b0: 5529 823e e16d 013f 2e6b 94be ffa5 93bc
000003c0: 1409 05be 1c84 623b a573 333e a7f8 e83e
000003d0: 0a99 45be 9484 28be 9908 bb3d 77f8 893e
000003e0: 0cef 903e c3cc 583e 80a4 fd3c a4bb 89be
000003f0: 2e94 683e 125c ef3e 2467 00bd 20ce 2e3b

net.4.bias f4 [4]
0.0678048 -0.06857973 0.10697382 -0.15381807
00000000: 3edd 8a3d 8873 8cbd 1715 db3d 7c82 1dbe
