lab6/dqn.pth (torch_old, 501612 bytes, 6 tensors)

net.0.weight f4 [400, 8]
000000 dc 2b 4f be 27 f2 36 bd d5 8e 90 3e c7 b9 9d bd
       -0.20231575 -0.04466453 0.28233972 -0.0770145
000010 14 77 96 3e af e0 8f 3e 21 9f 56 3e 3a a9 53 3e
       0.29387724 0.28101107 0.2095914 0.20670024
000020 91 c3 aa 3f b0 15 bb bf fb 2f d3 3d 11 5e 13 3f
       1.3340932 -1.4615993 0.10311886 0.5756541
000030 a4 7b d1 bd eb d1 20 be be 81 9f 3e ec 57 b8 be
       -0.10228661 -0.15705077 0.31153673 -0.3600458
000040 27 a3 87 3d ee aa 65 3e bd 10 a2 bc 6c d9 98 3e
       0.06622916 0.22428486 -0.019783372 0.2985338
000050 d5 3d 0f 3c d2 2e 91 3e 1e 60 de be df 65 70 be
       0.008742769 0.28356034 -0.43432707 -0.2347636
000060 8d 21 ab 3d 44 a0 94 bd 4b 0c 02 3f 3b 3e be bd
       0.08356009 -0.07257131 0.5080001 -0.09289213
000070 ea 2d b1 bd 9c 0c 84 3e 61 82 b8 3e 12 4f 65 bf
       -0.086513355 0.2579087 0.3603697 -0.89573777
000080 fd 34 c8 3e ed e0 ce be 45 fc 39 be 58 d5 44 bf
       0.39102927 -0.4040598 -0.1816264 -0.76888037
000090 29 ca 1d bf 6b b9 2b bd 41 b2 ba 3e 94 5d 36 3d
       -0.61636597 -0.041924875 0.36464122 0.044522837
0000a0 0d 6f e2 be 89 91 06 c0 df 23 1c 3e 3a 21 08 bf
       -0.4422535 -2.1026328 0.15248059 -0.531757
0000b0 1a 3f 8e be 90 34 68 3b 5a e0 a6 3c 21 51 42 3e
       -0.27782518 0.003543172 0.020370651 0.1897626
0000c0 22 f3 23 be c9 aa 04 bf 15 16 34 bf 4c ee 41 3f
       -0.16010717 -0.518231 -0.70346195 0.7575424
0000d0 79 57 ca be ef f8 b5 be 0d 61 68 be 14 b7 f2 bc
       -0.3951986 -0.35541484 -0.22693272 -0.029628314
0000e0 7e 9c 0f be 69 ce 93 3d fc 77 ad bd c6 28 b1 be
       -0.14024541 0.07217104 -0.08470151 -0.3460142
0000f0 48 3c 81 be 06 7e 82 3e 4a fe 1a 3e f3 31 de bd
       -0.25241303 0.25486773 0.15136066 -0.10849371
000100 58 a6 6b 3e bc 1a 9e 3e 69 10 d9 bd 74 4c 24 bc
       0.23012674 0.30879772 -0.10598833 -0.0100279935
000110 6d bb 13 be 51 92 04 3f 71 f0 aa 3d c7 39 36 3e
       -0.14426966 0.5178576 0.08346642 0.17795478
000120 93 b1 f5 3e 6e d0 44 bd 41 c4 56 be ec 6d 8f be
       0.4798704 -0.048050337 -0.20973302 -0.2801355
000130 3f 21 99 3e dd 2d 5e bd b3 59 2d 3e 1b f8 ba be
       0.29908177 -0.054242957 0.16928749 -0.36517414
000140 8d 56 ae 3c f1 5b 01 bf cd f5 ca 3e e7 c5 4a be
       0.021281505 -0.50530916 0.39640656 -0.19802056
000150 91 6d 0d bf 83 6c 16 bf 42 27 a9 bc 1c 2f ab 3e
       -0.5524531 -0.58759326 -0.020648602 0.3343438
000160 dd be ed 3d c2 2b e5 bc 92 1e db be d3 1b 0c be
       0.1160867 -0.027974967 -0.4279676 -0.13682489
000170 20 a5 f9 3e 76 8f ec 3e e3 da 4d be 39 ca c3 be
       0.48758793 0.46203202 -0.2010303 -0.3824022
000180 2b d5 55 3e b5 58 83 3c b4 40 2c 3f 2a aa 7e 3e
       0.20882098 0.01603351 0.6728623 0.248696
000190 19 f6 15 3f 59 1c 1a 3e 5a 05 e5 3c 46 61 51 3e
       0.5857864 0.15049876 0.027956653 0.20447263
0001a0 d4 93 72 3e 2b 41 d2 be 22 61 74 be 61 01 16 3f
       0.23689204 -0.41065344 -0.23865178 0.58595854
0001b0 d1 7a 52 bf 05 0c aa be 47 fd 97 3e 61 0d 8f be
       -0.8221865 -0.33212295 0.29685423 -0.27939895
0001c0 ca 49 d0 3e b8 35 c5 be e9 f9 16 be 4d 46 06 bf
       0.40681297 -0.38517547 -0.1474377 -0.5245102
0001d0 5f f5 56 3e 7e 22 af 3c 32 29 49 3e 26 92 b9 be
       0.20992039 0.021378752 0.19644621 -0.36244315
0001e0 fc e4 50 3f 5b 52 77 be c2 40 fd 3d 40 b3 d3 be
       0.815994 -0.2415251 0.12365867 -0.41347694
0001f0 8a 3c b9 be 36 c7 26 be 50 c4 33 3d 19 50 12 be
       -0.36179 -0.1628693 0.04388839 -0.14288367
000200 b6 4c f4 bc 87 70 48 be d2 31 d4 be 6b 22 f9 be
       -0.029821735 -0.19574176 -0.4144426 -0.4865907
000210 e7 58 fb 3e 38 5d aa 3e ad 12 3c be cc 2f a2 be
       0.49091265 0.33274245 -0.18366499 -0.3167709
000220 3f 08 b6 bb 7f 4b 93 be 65 a4 4e 3e 33 1d 72 3e
       -0.005555182 -0.28768536 0.20179899 0.23643951
000230 8a 0d 37 3f 37 dd f5 bd ac 40 18 bd 49 0d e3 bd
       0.71505034 -0.12005084 -0.03717105 -0.11086518
000240 e6 80 c2 be da b2 cc be 2d 66 e4 3e f9 62 0d bf
       -0.37988967 -0.39980203 0.44609204 -0.55229145
000250 49 57 ce 3c be c9 fb 3d 94 ad a9 bd 89 51 7f bd
       0.025188105 0.12294339 -0.082850605 -0.062333617
000260 1f 0e 9e 3f 69 83 e3 bd be d6 f1 bd be 89 5c 3e
       1.234806 -0.11109049 -0.11808537 0.2153692
000270 55 9f 94 be 5f 06 bb bd 13 18 ae 3e 2e a3 c0 3d
       -0.2902781 -0.091320746 0.34002742 0.09406124
000280 90 9f b9 3d e7 83 3e 3e 30 b2 4d be 94 84 d9 3e
       0.09063637 0.18605004 -0.20087504 0.42483962
000290 b5 75 94 3b 90 5d ea be a8 e5 e9 bd 2c f8 2f 3e
       0.0045306333 -0.45774508 -0.114207566 0.17184514
0002a0 f7 2b 52 3e 67 8b 51 be 6b e9 84 3e af 86 d9 bd
       0.20524584 -0.20463334 0.25959334 -0.10621392
0002b0 0f 29 8d be f3 8a be be f5 e9 03 be 96 7b 76 3e
       -0.27570388 -0.37215385 -0.12882216 0.24070582
0002c0 23 43 8c 3e 5d 7f 67 3b 33 4b 37 bd f4 3b 34 be
       0.2739497 0.0035323717 -0.04474945 -0.17600995
0002d0 f1 04 a7 bb fc 45 4b 3e a5 db 37 3e 6d e7 74 be
       -0.0050970246 0.19850916 0.17954881 -0.23916407
0002e0 10 d9 3a bf 75 01 3a bd 47 62 b5 be b2 af af be
       -0.7298746 -0.045411546 -0.35426542 -0.34313732
0002f0 90 02 7f be 09 4e 86 3e 26 a2 8e 3d aa 2a 20 bf
       -0.24903321 0.2623141 0.06964521 -0.625651
000300 9f 0d 2b 3f 55 f3 71 bd cb dc 86 3d 67 1f 2d 3f
       0.6681766 -0.05906995 0.06585082 0.6762604
000310 fa a9 d0 3e d3 5e 95 be 7c ad db 3e 61 b8 95 bc
       0.40754682 -0.29173908 0.42905796 -0.018276395
000320 06 b3 86 bf c7 43 33 c0 5e 9b 9d be 76 91 b4 3e
       -1.0523384 -2.8010118 -0.30782598 0.35267228
000330 b4 75 2c 3f 06 99 cd 3d eb 78 b2 3d 31 22 11 3d
       0.673671 0.100389525 0.087144695 0.035432998
000340 76 08 da 3d 03 67 36 be 53 04 69 bd 51 a3 b2 3e
       0.10646145 -0.17812733 -0.05688889 0.34890226
000350 b7 a3 4b 3f 3b 92 c0 bd 39 3d e5 3d 2d 7a 8f bd
       0.79546684 -0.09402891 0.11193318 -0.07005725
000360 15 2a 16 be f0 60 5c be fb e1 9d 3c 20 aa fd be
       -0.1466449 -0.21521354 0.019272795 -0.49543858
000370 77 bc bc 3e 75 ca 1b 3e 08 90 03 bf 0b 7d 82 be
       0.36862537 0.1521395 -0.5139165 -0.25486025
000380 45 15 fa 3d d5 60 da be bd 6d 11 bf 4f 7a 5c 3e
       0.12211088 -0.42652002 -0.5680807 0.21531032
000390 0f 0e 8e bd 2d fb 0e bf 6f 45 cf be f0 d3 f2 be
       -0.06936275 -0.55852014 -0.4048266 -0.4742732
0003a0 e6 f9 9c bd b1 b5 5d bf cb d7 5d be 6c 48 20 bf
       -0.07664852 -0.86605364 -0.2166435 -0.62610507
0003b0 bf e1 0a bf 43 15 14 be c5 6d dd be 86 ab 31 3d
       -0.5425071 -0.14461236 -0.4324781 0.043376468
0003c0 26 10 5f 3e 3a 83 5d 3e e9 ae f5 bc c6 4e ad bd
       0.21783504 0.2163209 -0.02999063 -0.084622905
0003d0 05 2a d2 3c c4 ab e4 3d 8c db 37 3e 0c fa 4b 3c
       0.025654802 0.11165574 0.17954844 0.012449753
0003e0 d5 a4 ee 3e df 00 3c be a0 2f a2 3e ee d4 76 be
       0.46610132 -0.18359707 0.3167696 -0.24104664
0003f0 b0 c4 8f 3e 1d 6d 70 be e4 9f a7 be 63 04 2d bc
       0.28079748 -0.23479123 -0.32739174 -0.010560128

net.0.bias f4 [400]
000000 df a2 da bd f2 fc 57 bd 9e 8e 18 bf 43 fa 5d 3d
       -0.106755964 -0.05273146 -0.59592617 0.054193746
000010 91 bb ac be 81 d5 b0 bd dd 96 bf bd f6 c7 eb 3b
       -0.33736852 -0.08634473 -0.09354947 0.007195468
000020 4e 21 5d 3d 34 e9 67 bc f3 64 b5 be ef 78 ac be
       0.05398684 -0.014154721 -0.3542858 -0.33686015
000030 16 78 82 bd 99 fb 6c bd 9f bc 57 bd 6c 74 04 be
       -0.06370561 -0.05785713 -0.052670117 -0.12935036
000040 d9 0e cf be 39 b2 d3 3d 55 4f 8d be 63 3b 19 be
       -0.40441015 0.10336728 -0.27599588 -0.1496406
000050 4e 9f 59 be 94 bb 63 bd e1 43 20 bd ba 26 c1 bd
       -0.21252176 -0.05559881 -0.039127234 -0.09431215
000060 9c 31 83 be a9 80 70 be 73 0c e0 3d b2 e1 c3 be
       -0.25623786 -0.2348658 0.109398745 -0.3825813
000070 3d ce b8 be ee b5 c8 3d 2f 36 1f bd 20 a4 81 be
       -0.36094847 0.09800325 -0.038870033 -0.2532053
000080 55 9f 08 3e 98 90 99 be 83 ca 7f 3e 35 e0 80 bc
       0.1334203 -0.2999313 0.24979596 -0.01573191
000090 7f 54 d4 be 8f a1 7a be f9 ef 88 3d 4d 7e 03 bf
       -0.41470715 -0.24475692 0.06686396 -0.51364595
0000a0 c2 74 e1 3e a9 05 e0 3c cc 58 1e bf 68 2d 6c be
       0.44034392 0.027346449 -0.61854243 -0.23064196
0000b0 31 48 4e 3e e7 89 c0 be 9e 7e 53 3e 1b cd 06 3e
       0.20144726 -0.3760521 0.2065377 0.13164179
0000c0 b5 b1 d9 be 39 bc 94 be 65 8b 37 3e a0 43 38 be
       -0.42518392 -0.29049852 0.17924269 -0.17994547
0000d0 af 70 d0 3b 9c 62 f8 3d ab bc 09 bf 24 2f c3 bc
       0.006361089 0.12128183 -0.5380351 -0.02382619
0000e0 85 0c 41 3e 73 11 55 3e e7 95 23 bc c9 7d 71 ba
       0.18852432 0.20807438 -0.00998447 -0.0009212164
0000f0 bb b9 0e bf 79 67 e2 bd 1d f0 79 be 41 26 5b 3e
       -0.5575215 -0.11054892 -0.24408002 0.21401311
000100 02 4c 3c 3b e0 04 c6 3e 03 aa 08 bf 01 40 c2 bd
       0.0028731828 0.38675594 -0.5338442 -0.09484864
000110 ae 65 62 bd ee cc 98 be e4 77 a7 be c1 62 d4 bc
       -0.05527275 -0.2984385 -0.32708657 -0.025925996
000120 f9 e9 5f 3e 7c 2e 8a 3e ab 3e 00 bc d7 41 af be
       0.21866597 0.2698859 -0.007827441 -0.3422992
000130 c2 cd 85 3e 2d 8a ef be b9 53 4f be 0b 36 83 bd
       0.26133543 -0.46785107 -0.20246781 -0.06406792
000140 21 5a 87 3e 00 ab 0f 3e 89 1b d3 be d5 49 1e bf
       0.2643595 0.14030075 -0.41231945 -0.6183141
000150 ff d8 58 3e 71 87 87 be d0 f7 7b be 1a 26 2c 3c
       0.21176527 -0.2647052 -0.24606252 0.010507131
000160 77 b7 b1 be 6e 6b 8d 3e 05 52 d5 be 41 57 34 be
       -0.34710285 0.27621025 -0.41664138 -0.1761141
000170 ff f0 62 be b1 bb 84 bd fd 20 a1 be c0 07 97 bd
       -0.22162245 -0.06481112 -0.3147048 -0.07374525
000180 df 9d 1a 3f 94 a6 0d be 5b 0d 2b 3e 8b 77 be ba
       0.6039714 -0.13833076 0.16704313 -0.0014531476
000190 d8 c6 45 bd d1 a3 de 3d 35 da 41 be 02 91 26 bd
       -0.048285335 0.10871089 -0.18930896 -0.040665634
0001a0 e7 5a cf be 76 f4 bf be 8f b4 80 3d f1 fc c1 3e
       -0.4049904 -0.37491196 0.06284439 0.3788829
0001b0 b6 e7 9c 3d ba 0f 72 3e d9 10 d9 be a2 c1 a4 3e
       0.07661383 0.23638812 -0.42395666 0.3217898
0001c0 48 95 1e be 86 d0 d8 be 19 69 e2 bb 23 cd d2 be
       -0.15486634 -0.4234659 -0.0069095013 -0.41172132
0001d0 c4 23 2a 3e 75 d6 ec bd c4 3a 82 be 55 f8 d2 bd
       0.16615206 -0.11564342 -0.2543546 -0.10301272
0001e0 5e 53 8c 3b 03 87 fb bd c4 2c b5 be 67 05 19 3e
       0.004282399 -0.12281611 -0.35385716 0.14943467
0001f0 11 8d 67 be 6c e1 84 be bc 5a 5e be 49 ef 4f 3d
       -0.22612406 -0.25953233 -0.217143 0.05076531
000200 22 2e d4 bc 5e 7a 85 be 8d 7b 02 bf 04 9c c5 be
       -0.025900904 -0.2606992 -0.50969774 -0.38595593
000210 47 dd 0c be e0 36 63 3e 69 c0 77 be 36 a5 ca be
       -0.13756286 0.22188902 -0.24194492 -0.3957917
000220 c3 66 a1 be 5f 97 08 be e8 14 a1 be 7b 22 9f be
       -0.31523713 -0.13338993 -0.31461263 -0.31080994
000230 60 f3 c4 be 31 21 d5 be bd 0a c5 bd 76 e0 06 bf
       -0.3846693 -0.41626886 -0.09621189 -0.5268625
000240 04 38 ba be db 66 ef be 92 02 f3 3d 3e 2a 82 bd
       -0.36370862 -0.4675816 0.118657246 -0.06355713
000250 89 bd 68 3b ca a8 5a be 0d dc 03 bf f8 27 c4 3e
       0.0035513362 -0.2135345 -0.51507646 0.38311744
000260 88 aa 2c be 67 66 22 bc 71 6b 13 bf 96 19 0d 3e
       -0.16861928 -0.00991211 -0.5758582 0.13779292
000270 11 b9 b0 be aa 78 81 3c b4 a1 5a 3e 18 98 13 bd
       -0.34516194 0.015804607 0.21350747 -0.03603372
000280 a6 26 81 3d d8 f0 cf be d4 66 85 3e cf 5e 91 bd
       0.063062 -0.40613437 0.26055014 -0.070981614
000290 9c bd 53 be dc a4 b2 be 52 ff 0d bd 28 65 85 3d
       -0.20677799 -0.34891403 -0.03466732 0.06513435
0002a0 c6 be 78 be b4 59 09 bf e4 9c 37 3d 0c e9 aa 3d
       -0.24291524 -0.536525 0.044827357 0.083452314
0002b0 58 e7 0c 3e 43 24 41 3e 1a 1f 88 be 8e 29 40 3e
       0.13760126 0.18861489 -0.2658623 0.18765852
0002c0 bd b0 97 3e 08 71 b4 3d 12 6e 2f bc c7 63 a5 3d
       0.29627028 0.088106215 -0.010707395 0.08075672
0002d0 50 7b 48 be f3 31 6e be 6f 7a d9 be d6 4a 10 3e
       -0.1957829 -0.23261242 -0.42476222 0.14091048
0002e0 a9 45 8f 3e c5 a9 db be e3 f8 77 3c e3 05 82 bd
       0.27982834 -0.4290296 0.015135023 -0.06348779
0002f0 cc 05 d1 3e 6d b0 db be 72 7a 12 be c4 b2 6f bc
       0.40824735 -0.4290804 -0.14304522 -0.014630023
000300 aa db 67 bc 04 62 71 3e fc 96 c1 3e c3 8a 8e 3e
       -0.014151493 0.23572546 0.37810504 0.27840242
000310 e7 66 e7 3b e5 63 e8 3d 2f 2d 0a 3c 32 b8 8c be
       0.0070618275 0.11347178 0.008433624 -0.2748428
000320 fd 79 9e 3e e3 22 5f 3e 6c b6 d8 3d 41 99 53 be
       0.30952445 0.21790652 0.10581669 -0.2066393
000330 70 d1 77 be 6e 2c 63 3e e6 b8 8f 3e 63 b0 02 bf
       -0.24200988 0.22184917 0.28070754 -0.51050395
000340 80 3a 7d 3e 59 6d b1 bd 27 1c 98 be 5c 25 6c bd
       0.24729347 -0.086634345 -0.2970898 -0.057652816
000350 a9 41 c7 be 62 3e 1c bf 2c 18 50 3e 4b eb 1e 3b
       -0.38917282 -0.6103269 0.20321721 0.0024249132
000360 e4 d4 f8 bc 32 a3 c7 be 12 ff 94 be a6 aa 99 bd
       -0.030374952 -0.38991696 -0.29100853 -0.07503252
000370 ba 61 8a be 59 e8 7f be 1e e8 b7 3d 6c 4a 62 3d
       -0.27027684 -0.24990977 0.0897982 0.055246755
000380 c9 8e a3 3d 4f 5a e3 bd 83 92 4e 3e 4e fc 20 3e
       0.079862185 -0.11101209 0.20173077 0.15721247
000390 df 9c 1a bc 84 7d 32 bc cc c0 08 3e ca b5 3c be
       -0.009436815 -0.010894183 0.13354796 -0.18428722
0003a0 e9 cc 24 3e 55 2b 9c be d3 82 06 3f a8 0e a2 be
       0.16093792 -0.3050181 0.5254337 -0.31651807
0003b0 1c b9 8c be 8d 05 b5 be 92 08 99 be d2 6e e2 be
       -0.27484977 -0.35355797 -0.2988935 -0.44225174
0003c0 57 69 1f 3e e9 68 5f be ce 0d 81 3e dd cd ad be
       0.15567528 -0.21817364 0.25205845 -0.33946124
0003d0 fb 7b 02 bf d4 6b e8 be 8d a7 04 bf e4 3d 67 3e
       -0.5097043 -0.45394766 -0.5181816 0.22582203
0003e0 2e e4 1c be a3 16 f1 3d 26 ac 31 3e ef 2e 8c 3e
       -0.15321419 0.11771896 0.17350826 0.27379557
0003f0 92 ee 04 3e 5e 13 33 be 20 e9 58 3e 1c ef fc be
       0.12981632 -0.17487857 0.2118268 -0.49401176

net.2.weight f4 [300, 400]
000000 43 d6 3f 3e c9 69 af be 11 b5 de 3d 3a 98 db bd
       0.18734078 -0.34260395 0.108743794 -0.10722394
000010 d7 df 8b bd 5a ee 7f 3d 63 56 44 be ca 13 24 be
       -0.068298034 0.06248317 -0.19173579 -0.16023174
000020 6b 2e 69 be 8d 90 1d be 7b fb 48 3d f3 65 10 be
       -0.22771613 -0.15387173 0.049067955 -0.1410139
000030 f3 63 91 bd 84 c9 c7 be d5 0d b3 bd cf e5 ca bc
       -0.07099142 -0.39020932 -0.087428726 -0.024767784
000040 08 f8 2d 3d 0f 0f 90 be b1 39 22 3e ed 16 b4 be
       0.04247287 -0.2813649 0.1584232 -0.3517374
000050 f7 f8 ef bd 0c db 27 be a8 52 17 bf ab a9 9b bd
       -0.11717408 -0.16392154 -0.591105 -0.07600721
000060 8f 1c 59 be b1 15 49 3d a8 ff 1d be 33 e9 0c be
       -0.212023 0.049092952 -0.15429556 -0.13760833
000070 d0 c6 cb bc ce cb 1b be 96 cb bd be 6a a2 77 be
       -0.024875075 -0.15214464 -0.37069386 -0.2418305
000080 d3 ed af ba 83 29 83 be 58 33 09 bf e2 e3 8a bd
       -0.0013422318 -0.25617608 -0.5359397 -0.067817464
000090 9e 6c ed bd 80 61 2c 3d 03 16 a1 bd dc 51 47 be
       -0.11592983 0.04208517 -0.078655265 -0.1946482
0000a0 97 1f 9d bd a0 a9 8f be 56 ba 19 bd 96 90 ad 3d
       -0.07672041 -0.280591 -0.03753122 0.08474843
0000b0 39 aa 8b be 7c f6 de 3d c8 f6 69 be b0 e3 7a bd
       -0.27278307 0.10886857 -0.22848046 -0.061252296
0000c0 7c 06 c0 be 2f 31 e9 bb 44 d7 f2 be 79 c3 1a bb
       -0.37504947 -0.007116459 -0.4742986 -0.0023615046
0000d0 8c 54 b5 be e7 33 a7 be f6 3a 88 bd 56 65 cf bd
       -0.35416067 -0.32656786 -0.06651871 -0.1012675
0000e0 8c 19 56 3d 67 85 89 be 80 4e 0f be 90 b8 bd 3d
       0.052270457 -0.2685959 -0.13994789 0.09263718
0000f0 72 c1 bc be 89 fc 11 be 15 ca 8a be 0d 3a d8 be
       -0.36866337 -0.14256491 -0.271073 -0.4223179
000100 2b cc 9d 3c 6f 71 4c be 9e f0 ce 3c c5 25 7d be
       0.019262394 -0.19965146 0.02526122 -0.24721439
000110 61 4e da bd 01 59 a9 3c 02 15 90 3c fd ac f7 3d
       -0.10659481 0.020672323 0.017588142 0.12093542
000120 f6 23 18 bd 67 e2 2f be df e6 70 be cd 43 56 bb
       -0.03714367 -0.1717621 -0.2352557 -0.003269422
000130 4e d8 c1 bc b6 f5 89 bd 76 94 d7 bd b1 a2 b9 3d
       -0.023662712 -0.06736319 -0.105263636 0.09064234
000140 71 56 fd be ef e4 7c be 13 9e b9 3d 9a 2f e7 3d
       -0.49480012 -0.24696706 0.090633534 0.11288376
000150 01 d5 d6 bd 7f 5f f5 3d 93 b3 63 bd ba 3e ca bd
       -0.10489846 0.11981105 -0.055591177 -0.098752454
000160 e3 7e 15 3e 6b 35 a2 bc 16 4c 10 be bf ff 84 3d
       0.14599185 -0.019800862 -0.14091524 0.06494092
000170 00 6a ab 3c 41 09 10 3b 8e 2d 51 be db 16 9b bd
       0.020924568 0.0021978172 -0.20427534 -0.07572719
000180 a2 b1 85 bd dd 6c 45 be 25 6a a7 bd bc a4 16 be
       -0.065280214 -0.1927981 -0.08174542 -0.14711279
000190 34 57 a1 3d 25 0f 35 3a d3 51 f9 3d 3f 72 00 be
       0.07877961 0.0006906859 0.1217381 -0.12543581
0001a0 75 99 fb 3d a2 13 42 be c4 3a a8 be d6 29 27 bd
       0.12285129 -0.18952802 -0.32857335 -0.040811382
0001b0 da 21 a9 3d 94 8d a2 bd 8e 11 2e be ec 4f 3c bd
       0.0825841 -0.0793716 -0.16998884 -0.045974657
0001c0 b8 c5 8a 3d fc af 09 3e db 3e 1d 3d 75 96 1c 3e
       0.06775993 0.13446039 0.03839002 0.1529177
0001d0 da 94 53 be b8 42 c8 3d f6 bf fc bd 75 bd 35 3e
       -0.20662251 0.097783506 -0.12341301 0.17748053
0001e0 8f 7b 7e be 2f d2 0a 3e 59 1a 95 3c 35 60 2d bf
       -0.24851821 0.13556741 0.01820104 -0.67724925
0001f0 d8 88 1f 3d 38 85 85 3d 8b 56 be bd 16 4c 97 be
       0.038948864 0.0651955 -0.092938505 -0.29550236
000200 97 ce 0c be c5 36 15 3e 6e 50 eb bc b4 c4 32 3e
       -0.13750683 0.14571674 -0.028724875 0.17457849
000210 56 c3 47 be cf 7f 89 bd b9 cf 8a be 2e 96 87 bd
       -0.19508108 -0.06713831 -0.27111605 -0.066204414
000220 45 c2 a0 be 55 dd 41 be d2 4e 2e be 9b 23 9e bd
       -0.31398216 -0.18932088 -0.17022255 -0.07721635
000230 7f 3f 3d 3d 0c 3a 24 3d f3 b1 5d be da e8 49 bd
       0.046203133 0.04009442 -0.21649913 -0.04929433
000240 f2 cd 84 3e 0c 26 62 be c9 7b 29 3e dd 65 05 3d
       0.25938374 -0.22084826 0.16551127 0.032567848
000250 5c 20 be be 1d 98 39 bd e7 62 c6 3d 8d 2d 4a be
       -0.37134063 -0.045311082 0.09686833 -0.19743939
000260 de a2 26 bf 94 be 3a bd a7 28 05 be 9b 51 aa bc
       -0.65092266 -0.045591906 -0.13003789 -0.020790866
000270 20 b5 65 3e 5b 0c bc bc 97 37 02 be e3 66 66 bc
       0.22432375 -0.02295511 -0.12716518 -0.014062616
000280 ca 5e ab be b7 e3 83 3d b7 ad f3 be 5b d8 bd be
       -0.33470756 0.064399175 -0.4759347 -0.3707913
000290 b9 29 3d 3d d2 dc 64 be c2 a2 82 bc df 14 6d 3d
       0.046182368 -0.22349861 -0.01594675 0.057881232
0002a0 2f c6 f3 bc d2 e3 24 3e bc d0 7f be b3 9b 04 be
       -0.029757587 0.16102532 -0.2498197 -0.1295002
0002b0 fc d0 db be e8 bb 5f bd f3 5c 87 3b e1 38 04 be
       -0.4293288 -0.05462256 0.0041309535 -0.12912323
0002c0 06 11 3f 3d bc f6 c8 3b 8d 22 23 be 9f 4c 68 bd
       0.046647094 0.0061329287 -0.15931149 -0.056713697
0002d0 54 4f 2c be 56 ab 90 be 6f 52 75 bd 26 aa 90 bd
       -0.16827136 -0.2825572 -0.059893068 -0.07063703
0002e0 13 79 c1 bd ee 1e 21 be 08 c8 0c be ef a1 c2 be
       -0.09446921 -0.15734455 -0.13748181 -0.3801417
0002f0 d3 21 1e 3d de d7 2e 3d a7 90 97 be d2 8d 8c 3c
       0.038606476 0.042686336 -0.29602548 0.017157469
000300 8a 2c 7a bd d9 10 6f be df 27 db b7 a9 65 24 bd
       -0.061077632 -0.2334627 -2.61254e-05 -0.040136013
000310 5f 0e a9 bd b3 87 26 3e 63 07 c2 3d a1 28 ec be
       -0.08254694 0.16262703 0.09474065 -0.46124747
000320 00 b1 21 bf 3b 87 ac be 21 67 0d bd 25 7f 1e be
       -0.63160706 -0.33696923 -0.03452218 -0.1547819
000330 4b 57 6b ba ea e3 1c 3e 0d f3 07 be f1 b1 98 3e
       -0.0008977546 0.15321317 -0.1327631 0.2982326
000340 ed ee fe 3c cb b9 1d 3d c7 48 c7 be f1 44 34 be
       0.031119788 0.038507264 -0.38922712 -0.17604424
000350 ba 37 81 3c be 20 48 be 53 13 bd 3d 88 25 9b bd
       0.015773643 -0.1954374 0.092322014 -0.07575518
000360 65 86 99 bd 71 d9 93 be 9b 20 92 bd 09 1b 1c bd
       -0.07496337 -0.28876832 -0.07135125 -0.03811172
000370 85 60 14 3e 52 5b 5a 3e ec d8 ff bd 80 32 99 3d
       0.14489944 0.21323898 -0.124925464 0.07480335
000380 e5 26 98 3d 41 cd b9 3d 09 1e b8 be 8c 5b df 3d
       0.074292935 0.09072352 -0.35960415 0.10906133
000390 1a d7 c1 be cb 74 23 bc e6 59 42 be 07 53 ee 3d
       -0.37859422 -0.009976576 -0.18979606 0.1163693
0003a0 bb 3a 85 bc 65 ea 89 be c2 f5 95 be 1d 92 de be
       -0.016263356 -0.2693664 -0.2928906 -0.4347085
0003b0 16 96 23 be 7c c1 4d be b8 9c 3e 3d 4e 59 c1 bd
       -0.15975222 -0.2009334 0.046536177 -0.09440862
0003c0 24 ab 94 bd 0c de 02 bf d7 96 97 3e 10 16 5b 3d
       -0.07259205 -0.51120067 0.2960727 0.053487837
0003d0 c8 8c 74 bd 2c b4 43 3e 58 72 42 be 5c 69 26 be
       -0.059704572 0.19111699 -0.18988931 -0.16251129
0003e0 68 f2 62 3e 52 51 c9 bb 68 cb 29 3d c4 93 d7 be
       0.22162783 -0.0061437273 0.04145375 -0.42104924
0003f0 78 36 4e bd b1 c4 36 be 8e cc a1 be 07 4a 98 bd
       -0.050344914 -0.1784847 -0.31601375 -0.074359946

net.2.bias f4 [300]
000000 7b a4 a8 bd 81 fa 45 ba 65 24 86 3d b1 66 e7 bd
       -0.08234497 -0.00075522816 0.065499105 -0.11298884
000010 ad f0 b0 bd 40 b4 2c bd 7b ef ad bd dc fe 88 bd
       -0.08639655 -0.042164087 -0.08492943 -0.066892356
000020 0c 89 9a 3c 22 f7 a2 bc 59 9e 88 bd 00 75 30 be
       0.018864177 -0.019893233 -0.066708274 -0.17232132
000030 41 75 bb 3d f9 bc f3 3c dc e6 6d bd 40 80 5c 3d
       0.09153224 0.029753195 -0.058081493 0.053833246
000040 59 c1 3a be 83 42 56 bd 77 c8 2e 3e 3d f4 ea bc
       -0.18237819 -0.052309524 0.17068659 -0.028680915
000050 44 36 63 bd ce 50 61 3d b7 ac 40 3e 9d c5 02 3e
       -0.055471674 0.055008702 0.18815885 0.12770696
000060 f5 5e db 3d de d1 0f 3e 73 80 ba bc e9 8f f8 bb
       0.10711471 0.14044902 -0.022766327 -0.007585515
000070 7a c0 85 bd c7 45 ee 3c 81 81 10 be 80 84 df bc
       -0.065308526 0.029086007 -0.14111902 -0.02728486
000080 c0 0f 8d bd cb a5 04 bd aa ef b3 bb 8f ec ee bb
       -0.0688777 -0.032384675 -0.0054912167 -0.0072913836
000090 34 79 a8 bd f4 1a ba 3d c2 55 8b bd 95 8d 21 3e
       -0.08226243 0.09087172 -0.068034664 0.15776666
0000a0 be 57 e2 bc c0 94 1d be 1c b1 97 bd a0 c4 f8 bc
       -0.02762973 -0.15388775 -0.07406828 -0.030367196
0000b0 8f 26 60 bd d8 df 28 3c ac e3 39 bd 91 ba 15 3d
       -0.054724272 0.010307275 -0.04538314 0.036554877
0000c0 38 e2 0c 3e 6e 1e 90 bd ad 78 9f 3a 7b 6e 4f bd
       0.1375817 -0.07037054 0.0012166701 -0.05064247
0000d0 ed 25 9f 3d f1 ec 70 bd 20 b3 9e bd 27 cf 08 3e
       0.07770906 -0.058819715 -0.07749009 0.13360272
0000e0 24 d0 0a bd e2 da 09 bc 74 34 d4 bc e5 b3 b5 3b
       -0.033889905 -0.008414002 -0.025903918 0.0055451267
0000f0 65 c6 75 bd 80 7e 86 bd 5a e1 5f 3d c1 d4 30 3d
       -0.060003657 -0.06567097 0.05465827 0.043171648
000100 d8 1e 40 be 3d 16 60 bc 02 42 45 3e 7e c6 13 be
       -0.18761766 -0.013677177 0.19263461 -0.14431188
000110 71 1f 96 3d 97 86 59 3d 73 7d 05 3c 90 33 34 be
       0.07330216 0.05310687 0.008147585 -0.17597795
000120 fe 2b 1c 3e c8 33 ad 3d f8 af 4d be cf ea 4e 3b
       0.15251157 0.08457142 -0.20086658 0.0031573062
000130 89 8e 30 bd d6 73 45 bb 32 c0 9d 3d 95 8f f6 bd
       -0.043104682 -0.0030128858 0.07702674 -0.12039105
000140 1a ed de 3d b0 be e7 bd 7e ab 02 3d 81 80 e1 3d
       0.10885067 -0.11315668 0.03190183 0.11010838
000150 f7 32 75 3e 13 7e 04 be 16 e0 ca 3d c3 53 40 bd
       0.23945223 -0.12938718 0.09906022 -0.04695488
000160 e1 82 14 3e 4f 13 ba 3d 67 24 84 bd f3 b7 2f be
       0.14503051 0.09085714 -0.06452256 -0.17160015
000170 37 90 1c bb d1 d4 61 bd d3 3c 87 3c 46 0c 29 3d
       -0.002388967 -0.0551346 0.016508495 0.04127147
000180 62 65 02 be f2 90 5c bd 3b e1 d6 bc b7 92 08 be
       -0.12733987 -0.053849168 -0.026230445 -0.13337217
000190 0e 35 11 3d 78 f8 17 3e 91 15 ff bc d1 3f 29 3d
       0.035450988 0.14840877 -0.031138213 0.041320626
0001a0 ca 8f 0a bd 72 74 17 bb dd c6 ad bd 36 d9 72 bd
       -0.033828534 -0.0023110178 -0.08485196 -0.05928918
0001b0 67 88 56 3c 1b 1a ac bc 38 60 d4 bd 2a b2 83 3d
       0.013094044 -0.021008542 -0.10369915 0.064304665
0001c0 37 49 c6 bd cd 3a 1f be c7 19 1d be c0 5c ee bc
       -0.096819334 -0.15549774 -0.15341865 -0.029096961
0001d0 d9 8b 0b 3e d4 5c 08 3e b5 35 6d bd f6 b9 eb bc
       0.13627566 0.13316661 -0.057912547 -0.028775197
0001e0 55 59 1f 3e a3 67 6d 3c 09 65 d3 3d ae 3a 3f 3d
       0.15561421 0.014490041 0.10322005 0.04668682
0001f0 9d c1 a4 bd 15 08 0d 3e 02 61 20 bd 02 00 f5 bd
       -0.08044741 0.13772614 -0.039155014 -0.11962892
000200 e2 29 4b bd 21 72 6f 3d a1 3e 3a bd c7 7b ee bd
       -0.04960049 0.05845845 -0.045469884 -0.116447024
000210 6a b7 f0 3d cf a3 08 bd d1 63 4c bd d3 41 4a 3d
       0.117537335 -0.033359345 -0.04989988 0.04937918
000220 88 19 01 3e ea 45 50 bd 87 2c c5 bd 7c 6b 04 bd
       0.12607396 -0.050847925 -0.096276335 -0.032329068
000230 59 f1 01 bd f0 d3 a8 bd 81 e0 32 bd 6c f9 0a 3e
       -0.031724308 -0.08243549 -0.043671135 0.1357171
000240 d9 1b a9 3d 6a 28 3b bc e2 85 93 3d 23 5e 24 bd
       0.08257265 -0.01142321 0.072032705 -0.04012884
000250 c9 7f 8d bc 31 e2 bf 3d 33 e7 d8 3d 7b b9 63 bd
       -0.017272847 0.093693145 0.10590973 -0.05559681
000260 cc b5 46 be 1c 5f 67 bd bf b8 91 bb af 05 fd bd
       -0.19405288 -0.056487188 -0.0044470723 -0.123546
000270 7a 47 b1 bd b9 76 a0 bd 68 79 f8 bb 7f 6a 4f 3d
       -0.08656211 -0.078351445 -0.007582832 0.050638672
000280 56 4e 1d 3d 62 17 fa 3d ce 02 02 bd ef 05 87 bd
       0.038404785 0.12211491 -0.031740956 -0.065929286
000290 d2 82 00 3d 91 63 1e bd fc c3 77 bc 6b 94 da 3c
       0.03137476 -0.038669173 -0.01512241 0.0266821
0002a0 1d 67 fa bc b7 e7 c5 bd b1 20 c4 3d f3 86 00 bd
       -0.030566746 -0.09663337 0.09576548 -0.031378698
0002b0 ce 45 92 bd 44 9d 65 bd ca 3f be bd 25 18 2a 3c
       -0.071422204 -0.056058183 -0.092895105 0.010381733
0002c0 45 a2 cc bd 44 dd 4d bc e1 e4 8e bd f1 c4 65 bd
       -0.09991888 -0.012564961 -0.06977249 -0.05609602
0002d0 b3 5f a0 bd e3 cb 2c be 92 18 9b bb 8a e9 8b bd
       -0.07830753 -0.16874652 -0.0047331536 -0.068316534
0002e0 a8 48 fe bc 26 d9 56 bd 5f 31 69 bd ff 11 9c bc
       -0.031040505 -0.052453183 -0.05693185 -0.01905155
0002f0 92 c5 30 be 04 f0 cf bc 84 06 5a bc 9b e7 72 bd
       -0.17262867 -0.025383003 -0.0133072175 -0.059302907
000300 7f ff 6c bd 22 6a 3e 3c 5e e5 b1 3c e7 7a 42 3e
       -0.057860848 0.011621984 0.021715816 0.18992196
000310 ed 27 60 bd fd fa 8a 3c 3f 8b ca 3d a1 52 51 be
       -0.054725576 0.016965384 0.0988984 -0.20441677
000320 0f 07 87 bd 57 25 fb bd 96 13 71 3c 64 f7 1e bd
       -0.06593143 -0.122629814 0.014714142 -0.03881015
000330 7f 3b 65 bd 56 84 14 3e 45 94 f1 3b 7c 23 66 3c
       -0.055964943 0.14503607 0.0073724114 0.014046546
000340 dc f4 10 be 74 0d 31 3d 9c 94 5a 3c 5d 2f d7 bb
       -0.14155906 0.04322572 0.013341095 -0.0065669254
000350 29 87 73 bd 5a e3 41 3b 09 c6 56 bd 56 56 93 3d
       -0.05945507 0.0029584975 -0.052434955 0.07194202
000360 96 60 ff 3c 32 58 66 bd 58 6b b3 3d 6f e8 00 bd
       0.031173985 -0.056236453 0.087607086 -0.031471666
000370 be fe f8 bc a8 39 b6 bd 42 64 db bc 82 2d 7b bc
       -0.030394908 -0.08897716 -0.026781205 -0.015330674
000380 ee 6c 51 bd f0 12 90 bd 14 0b 1c be 39 36 fa bd
       -0.051129274 -0.07034862 -0.15238601 -0.122173734
000390 e0 5a c3 3d 4c 83 2a be f1 97 a3 3c 1a 17 7b be
       0.095388174 -0.16651648 0.019969912 -0.24520531
0003a0 56 20 e6 3d a7 02 cc bc 19 b5 18 3e b9 0c e2 3a
       0.11236636 -0.024903608 0.14912833 0.0017246223
0003b0 77 5a 1e be c0 5c 53 bd 20 61 3d bd 0a 28 9f bc
       -0.15464197 -0.051602125 -0.046235204 -0.019428272
0003c0 7a ae 7a 3c 37 66 61 be aa 02 3e bd 99 50 dc bd
       0.0153003875 -0.22011648 -0.04638926 -0.1075756
0003d0 af 99 b4 ba 51 50 10 3d ec 5d 83 bd c7 e0 58 bd
       -0.0013778711 0.035232846 -0.064143986 -0.05294874
0003e0 cc 81 e6 bb 17 84 d2 bd 34 ea 5e 3c 10 63 c2 3d
       -0.007034516 -0.102791004 0.013605643 0.09491551
0003f0 90 8a 70 bd aa 72 ee bc 3c 6f df bd c5 ab 8e bd
       -0.058725893 -0.02910741 -0.10909888 -0.06966356

net.4.weight f4 [4, 300]
000000 9c ce 30 3e 24 91 49 ba 62 a0 f3 bc c7 41 97 be
       0.17266315 -0.0007689169 -0.029739562 -0.29542372
000010 19 6b eb bd 7e 57 d8 3b 62 27 5b bd a0 a3 1d be
       -0.11495037 0.0066022268 -0.053504355 -0.15394449
000020 47 35 90 be 7d 8b 55 3c a2 8f 8b 3d e6 db 7a bb
       -0.28165647 0.013033745 0.06814505 -0.0038278042
000030 7b d1 b5 be 81 42 18 bd e7 50 ea bc f4 f8 d7 be
       -0.35511383 -0.037172798 -0.02860303 -0.42182124
000040 b0 63 68 3e 63 97 4a 3a fc 24 02 bd be 8b 99 bb
       0.22694278 0.0007728247 -0.031773552 -0.004685848
000050 3c e8 5b 3d 7c 38 15 3f 82 f8 72 3e a9 97 3b be
       0.053688273 0.58289313 0.2372761 -0.18319573
000060 d6 4d f6 be 7c e9 a9 3e 28 b4 ea bb 75 53 93 bb
       -0.4810626 0.33185947 -0.0071625896 -0.004496033
000070 d2 08 15 3d fb bf 9e 3c 39 d3 f0 bd b9 7c ef 3b
       0.036385365 0.019378653 -0.117590375 0.0073085693
000080 5f 1e e2 3c 10 fb 3b bd 7f e7 e6 3c 95 77 08 3e
       0.027602373 -0.04589373 0.028186558 0.13326867
000090 23 da 7f be 65 90 52 bf 13 f5 c9 bd 64 f3 9c 3e
       -0.24985556 -0.8225158 -0.09861197 0.30654442
0000a0 a6 e1 ec 3e 8d 8f 14 bd 4a 06 8b bd cf c1 b2 3b
       0.46265906 -0.036269713 -0.06788309 0.0054552327
0000b0 49 5f f8 bd 1b 7e 0a be 85 19 aa bd 41 31 99 3e
       -0.12127549 -0.13524668 -0.08305649 0.2992039
0000c0 08 8b 2d 3e cf a0 77 be 2c 27 60 3c 48 96 e5 bc
       0.16947567 -0.24182437 0.013681214 -0.028025761
0000d0 de 56 cf 3e f9 1f 64 3e 4e f8 10 3f 91 88 71 3e
       0.40495962 0.22277822 0.5662888 0.23587252
0000e0 78 02 34 3d 11 d0 fc bc b5 70 31 bd 67 e6 ca be
       0.043947667 -0.030860933 -0.043320376 -0.39628908
0000f0 c5 d1 8a bd e7 08 96 bc 60 95 ad be 54 78 78 3e
       -0.067782916 -0.018314792 -0.33903027 0.24264652
000100 e0 16 81 be e8 36 38 3e 61 35 96 3e 25 83 20 3e
       -0.25212765 0.17989695 0.293376 0.15675028
000110 fc 5b b7 3d 0e 7e 8c 3e c9 3b 98 be 5a a9 98 3d
       0.089530915 0.27439922 -0.29733112 0.07454176
000120 05 cb 75 3e 0b 4c 26 3f 7e 79 60 be 21 cc 89 3e
       0.24003227 0.6495978 -0.21921346 0.2691355
000130 8b 9d 18 be 82 df fe b9 7b 6e ae be ef 24 c8 be
       -0.14903848 -0.00048613182 -0.34068665 -0.39090678
000140 39 50 b8 be f7 88 62 bd 0c 8e 06 3f aa fe a8 be
       -0.35998705 -0.0553064 0.52560496 -0.33006793
000150 53 8e 6c 3e 38 20 1d 3c da 24 d7 bc 92 64 27 3c
       0.23101167 0.009590201 -0.02626269 0.010216849
000160 6b da 42 3e e4 c6 52 3e 98 98 24 be 9a 63 f5 3e
       0.19028632 0.20583683 -0.16073835 0.47927552
000170 af a7 b3 3c 13 5b 7e be 37 c9 27 3c 2b 43 96 3d
       0.021930544 -0.2483943 0.010240844 0.0733703
000180 5f f0 dd 3e 2e 83 87 bc 3e c9 13 be 04 35 08 3f
       0.4334745 -0.016542044 -0.14432237 0.53205895
000190 82 7b 8c be 1e 94 cf 3e 01 24 c6 be e2 10 37 be
       -0.2743798 0.40542692 -0.38699344 -0.17877534
0001a0 5d 47 d6 bc e7 00 90 3d c6 8a af 3e ac e2 2f 3c
       -0.026157076 0.07031422 0.34285563 0.010735195
0001b0 ec b2 65 bc 3d 65 2f 3d 33 44 c6 3d 7e 31 28 3f
       -0.014019709 0.042821158 0.09680977 0.6570052
0001c0 f6 37 b0 be 61 01 10 3d 36 5d 29 3e 6f 3a 58 bc
       -0.34417695 0.035157565 0.16539463 -0.013197525
0001d0 f8 a8 3e 3e 46 c3 be 3e c5 76 93 bc 09 cd aa 3c
       0.18619144 0.37258357 -0.01800097 0.020849722
0001e0 ee cd 8b 3e 7d b8 13 3d c4 a5 aa be ac 72 02 bf
       0.2730555 0.036064614 -0.33329594 -0.50956225
0001f0 7c 76 39 3e 50 eb fa bd 64 fe 8a be a5 f0 9e bd
       0.18111604 -0.122519135 -0.2714721 -0.07760743
000200 d4 5d 4d be f5 ae 04 bf f8 6f 14 3d ca a9 3f 3e
       -0.20055324 -0.51829463 0.036239594 0.18717113
000210 ae af 39 3e de b2 13 3d d2 e4 1e 3d dc db 08 be
       0.18133423 0.036059253 0.03879244 -0.1336512
000220 4c 29 73 3e 0a 7f bc bd 3b 29 ef 3d 8e 09 87 bd
       0.23746222 -0.09203918 0.11677786 -0.06593619
000230 c6 7c 10 bc 36 88 28 3d 20 53 3a 3d 2c 10 6a bd
       -0.008818811 0.041145526 0.04548943 -0.05714433
000240 ae e3 04 3f 2e 48 ee 3b 89 40 85 3e e7 91 14 3d
       0.5190991 0.007271788 0.260258 0.036271956
000250 e7 97 c7 be c0 fc a0 be 2f 03 d0 3e 81 84 56 3d
       -0.3898308 -0.31442833 0.4062743 0.05237246
000260 b9 71 10 3e d2 66 58 bc 7e 65 81 be b9 e5 c7 3d
       0.14105882 -0.013208108 -0.25272745 0.09760613
000270 1a 22 fe bd 58 65 17 bd ea 89 1f 3c 2a dd f5 bd
       -0.12408848 -0.036961883 0.009737471 -0.12005074
000280 35 d0 a0 be 9c af 12 3e f2 03 34 bd b3 11 37 3c
       -0.3140885 0.14324802 -0.043949075 0.011173653
000290 0b 22 c7 bc 29 1f a0 be a3 15 0a bc 3a a5 86 be
       -0.024308225 -0.31273773 -0.00842801 -0.26297933
0002a0 3a a5 31 bc b7 15 71 be cc f5 fb bd e4 d2 d3 3d
       -0.010842616 -0.2354344 -0.123027414 0.103429586
0002b0 a3 4d 01 bd 44 cc b9 3c 07 97 70 bd 00 38 7b be
       -0.03156818 0.02268041 -0.05873778 -0.24533081
0002c0 c2 10 ca 3d 75 d3 96 bb c5 25 96 3d ae 5b 4d bc
       0.098664775 -0.0046028444 0.07331423 -0.012534065
0002d0 6d 00 21 be 7d e7 1c 3f 37 c5 3c be 50 c0 16 3d
       -0.15722819 0.61290723 -0.18434606 0.036804497
0002e0 18 76 66 bd ac 4a 2d bd db bc 09 be c2 8b 20 bd
       -0.056264967 -0.04230754 -0.13450949 -0.039195783
0002f0 3e 11 e9 3d f9 59 8e be 90 26 b6 be a6 64 5b bb
       0.11380242 -0.2780302 -0.35576296 -0.003347674
000300 55 d4 73 3d 3d 3b 11 3d b2 e6 77 bd 81 ae ed 3e
       0.059528667 0.035456885 -0.060522743 0.46422198
000310 ae ef 6b bd 48 fc 92 3c 80 b7 8e be 9c d3 8b 3e
       -0.057601623 0.017942563 -0.27874374 0.27309883
000320 ae f4 8b 3c 08 86 f5 3d 13 73 d6 3e 21 ac 90 3d
       0.017084446 0.11988455 0.4188467 0.07064081
000330 6a 3d ad be 69 5c 77 be 90 17 06 be 10 fd 36 bd
       -0.33835918 -0.24156345 -0.13094926 -0.044674933
000340 22 7d 1c 3f 4a de 0b bf 2b ad 1a 3f 88 81 2a 3e
       0.6112844 -0.5463606 0.60420483 0.16650975
000350 04 54 e9 bd f9 04 82 bd 47 ae 92 3b 52 27 41 be
       -0.11392978 -0.06348605 0.004476342 -0.18862656
000360 46 1d a9 3e e2 86 00 bd 61 34 7f 3e 64 5b 4b bd
       0.33030146 -0.031378634 0.24922325 -0.049647704
000370 06 8c 27 be 7e 3f bb 3e 62 02 1c 3c 5f 94 b1 3c
       -0.16362008 0.36571878 0.0095220525 0.021677194
000380 e5 4b 19 bc 25 74 cb 3c 28 8e c1 3c 75 4f 01 bf
       -0.009356474 0.024835655 0.023627356 -0.50511867
000390 c8 61 98 3e 47 b4 c0 3c 7e 84 81 bd aa 48 8b 3e
       0.297621 0.023523463 -0.06324099 0.27203876
0003a0 42 70 24 3f e8 04 11 be 2e d2 9b 3e c1 0e 14 3e
       0.6423379 -0.14162028 0.30433792 0.14458753
0003b0 9f de 9f bc 48 b0 9c 3c df 1e 09 bd 5b ff 62 bc
       -0.019515334 0.019127026 -0.033476707 -0.013854827
0003c0 5b 18 23 3d bc e3 ef 3d 38 0d 2f bc dc 90 59 be
       0.03981815 0.11713359 -0.010684304 -0.21246666
0003d0 af b6 60 bd 56 37 0f be d1 ac a8 3d 70 cf 3b 3d
       -0.05486172 -0.13985953 0.08236087 0.045852125
0003e0 3f cf e2 bb 77 87 c0 3d f0 ab d0 3b 41 07 81 3e
       -0.0069216783 0.09400838 0.006368153 0.25200847
0003f0 0f 43 05 3d e7 08 14 bd cc d7 6d 3e 58 0a 79 3d
       0.032534655 -0.036141302 0.23226851 0.06080088

net.4.bias f4 [4]
000000 5e 70 82 3d f8 8f 9e 3d 3d e9 ec bc 19 8e bc 3b
       0.063690886 0.077423036 -0.02891981 0.005754244
